{"format": "graph-model", "generatedBy": "1.15.0", "convertedBy": "TensorFlow.js Converter v3.7.0", "signature": {"inputs": {"segment_ids:0": {"name": "segment_ids:0", "dtype": "DT_INT32", "tensorShape": {"dim": [{"size": "-1"}, {"size": "-1"}]}}, "input_mask:0": {"name": "input_mask:0", "dtype": "DT_INT32", "tensorShape": {"dim": [{"size": "-1"}, {"size": "-1"}]}}, "input_ids:0": {"name": "input_ids:0", "dtype": "DT_INT32", "tensorShape": {"dim": [{"size": "-1"}, {"size": "-1"}]}}}, "outputs": {"sequence_output": {"name": "bert/encoder/layer_23/output/bottleneck/FakeLayerNorm/add:0", "dtype": "DT_FLOAT", "tensorShape": {"dim": [{"size": "-1"}, {"size": "-1"}, {"size": "512"}]}}, "pooled_output": {"name": "bert/pooler/Squeeze:0", "dtype": "DT_FLOAT", "tensorShape": {"dim": [{"size": "-1"}, {"size": "512"}]}}}}, "modelTopology": {"node": [{"name": "bert/encoder/layer_23/output/bottleneck/dense/Reshape/shape/1", "op": "Const", "attr": {"value": {"tensor": {"dtype": "DT_INT32", "tensorShape": {}}}, "dtype": {"type": "DT_INT32"}}}, {"name": "bert/encoder/layer_23/output/bottleneck/dense/kernel", "op": "Const", "attr": {"dtype": {"type": "DT_FLOAT"}, "value": {"tensor": {"dtype": "DT_FLOAT", "tensorShape": {"dim": [{"size": "128"}, {"size": "512"}]}}}}}, {"name": "bert/encoder/layer_23/output/bottleneck/dense/bias", "op": "Const", "attr": {"value": {"tensor": {"dtype": "DT_FLOAT", "tensorShape": {"dim": [{"size": "512"}]}}}, "dtype": {"type": "DT_FLOAT"}}}, {"name": "bert/encoder/layer_23/output/bottleneck/strided_slice_2/stack", "op": "Const", "attr": {"value": {"tensor": {"dtype": "DT_INT32", "tensorShape": {"dim": [{"size": "1"}]}}}, "dtype": {"type": "DT_INT32"}}}, {"name": "bert/encoder/layer_23/output/bottleneck/strided_slice_2/stack_1", "op": "Const", "attr": {"value": {"tensor": {"dtype": "DT_INT32", "tensorShape": {"dim": [{"size": "1"}]}}}, "dtype": {"type": "DT_INT32"}}}, {"name": "bert/encoder/layer_23/output/bottleneck/strided_slice_2/stack_2", "op": "Const", "attr": {"value": {"tensor": {"dtype": "DT_INT32", "tensorShape": {"dim": [{"size": "1"}]}}}, "dtype": {"type": "DT_INT32"}}}, {"name": "bert/encoder/layer_23/output/dense/kernel", "op": "Const", "attr": {"value": {"tensor": {"dtype": "DT_FLOAT", "tensorShape": {"dim": [{"size": "512"}, {"size": "128"}]}}}, "dtype": {"type": "DT_FLOAT"}}}, {"name": "bert/encoder/layer_23/output/dense/bias", "op": "Const", "attr": {"value": {"tensor": {"dtype": "DT_FLOAT", "tensorShape": {"dim": [{"size": "128"}]}}}, "dtype": {"type": "DT_FLOAT"}}}, {"name": "bert/encoder/layer_23/output/strided_slice_2/stack", "op": "Const", "attr": {"value": {"tensor": {"dtype": "DT_INT32", "tensorShape": {"dim": [{"size": "1"}]}}}, "dtype": {"type": "DT_INT32"}}}, {"name": "bert/encoder/layer_23/output/strided_slice_2/stack_1", "op": "Const", "attr": {"value": {"tensor": {"dtype": "DT_INT32", "tensorShape": {"dim": [{"size": "1"}]}}}, "dtype": {"type": "DT_INT32"}}}, {"name": "bert/encoder/layer_23/output/strided_slice_2/stack_2", "op": "Const", "attr": {"value": {"tensor": {"dtype": "DT_INT32", "tensorShape": {"dim": [{"size": "1"}]}}}, "dtype": {"type": "DT_INT32"}}}, {"name": "bert/encoder/layer_23/intermediate/dense/Reshape/shape/1", "op": "Const", "attr": {"value": {"tensor": {"dtype": "DT_INT32", "tensorShape": {}}}, "dtype": {"type": "DT_INT32"}}}, {"name": "bert/encoder/layer_23/intermediate/dense/kernel", "op": "Const", "attr": {"value": {"tensor": {"dtype": "DT_FLOAT", "tensorShape": {"dim": [{"size": "128"}, {"size": "512"}]}}}, "dtype": {"type": "DT_FLOAT"}}}, {"name": "bert/encoder/layer_23/intermediate/dense/bias", "op": "Const", "attr": {"value": {"tensor": {"dtype": "DT_FLOAT", "tensorShape": {"dim": [{"size": "512"}]}}}, "dtype": {"type": "DT_FLOAT"}}}, {"name": "bert/encoder/layer_23/intermediate/strided_slice_2/stack", "op": "Const", "attr": {"value": {"tensor": {"dtype": "DT_INT32", "tensorShape": {"dim": [{"size": "1"}]}}}, "dtype": {"type": "DT_INT32"}}}, {"name": "bert/encoder/layer_23/intermediate/strided_slice_2/stack_1", "op": "Const", "attr": {"dtype": {"type": "DT_INT32"}, "value": {"tensor": {"dtype": "DT_INT32", "tensorShape": {"dim": [{"size": "1"}]}}}}}, {"name": "bert/encoder/layer_23/intermediate/strided_slice_2/stack_2", "op": "Const", "attr": {"value": {"tensor": {"dtype": "DT_INT32", "tensorShape": {"dim": [{"size": "1"}]}}}, "dtype": {"type": "DT_INT32"}}}, {"name": "bert/encoder/layer_23/intermediate/strided_slice_3/stack", "op": "Const", "attr": {"dtype": {"type": "DT_INT32"}, "value": {"tensor": {"dtype": "DT_INT32", "tensorShape": {"dim": [{"size": "1"}]}}}}}, {"name": "bert/encoder/layer_23/intermediate/strided_slice_3/stack_1", "op": "Const", "attr": {"value": {"tensor": {"dtype": "DT_INT32", "tensorShape": {"dim": [{"size": "1"}]}}}, "dtype": {"type": "DT_INT32"}}}, {"name": "bert/encoder/layer_23/intermediate/strided_slice_3/stack_2", "op": "Const", "attr": {"dtype": {"type": "DT_INT32"}, "value": {"tensor": {"dtype": "DT_INT32", "tensorShape": {"dim": [{"size": "1"}]}}}}}, {"name": "bert/encoder/layer_23/intermediate/dense/Reshape_1/shape/2", "op": "Const", "attr": {"dtype": {"type": "DT_INT32"}, "value": {"tensor": {"dtype": "DT_INT32", "tensorShape": {}}}}}, {"name": "bert/encoder/layer_23/output/strided_slice_3/stack", "op": "Const", "attr": {"value": {"tensor": {"dtype": "DT_INT32", "tensorShape": {"dim": [{"size": "1"}]}}}, "dtype": {"type": "DT_INT32"}}}, {"name": "bert/encoder/layer_23/output/strided_slice_3/stack_1", "op": "Const", "attr": {"dtype": {"type": "DT_INT32"}, "value": {"tensor": {"dtype": "DT_INT32", "tensorShape": {"dim": [{"size": "1"}]}}}}}, {"name": "bert/encoder/layer_23/output/strided_slice_3/stack_2", "op": "Const", "attr": {"dtype": {"type": "DT_INT32"}, "value": {"tensor": {"dtype": "DT_INT32", "tensorShape": {"dim": [{"size": "1"}]}}}}}, {"name": "bert/encoder/layer_23/output/dense/Reshape_1/shape/2", "op": "Const", "attr": {"dtype": {"type": "DT_INT32"}, "value": {"tensor": {"dtype": "DT_INT32", "tensorShape": {}}}}}, {"name": "bert/encoder/layer_23/ffn_layer_2/output/dense/kernel", "op": "Const", "attr": {"dtype": {"type": "DT_FLOAT"}, "value": {"tensor": {"dtype": "DT_FLOAT", "tensorShape": {"dim": [{"size": "512"}, {"size": "128"}]}}}}}, {"name": "bert/encoder/layer_23/ffn_layer_2/output/dense/bias", "op": "Const", "attr": {"dtype": {"type": "DT_FLOAT"}, "value": {"tensor": {"dtype": "DT_FLOAT", "tensorShape": {"dim": [{"size": "128"}]}}}}}, {"name": "bert/encoder/layer_23/ffn_layer_2/output/strided_slice_2/stack", "op": "Const", "attr": {"dtype": {"type": "DT_INT32"}, "value": {"tensor": {"dtype": "DT_INT32", "tensorShape": {"dim": [{"size": "1"}]}}}}}, {"name": "bert/encoder/layer_23/ffn_layer_2/output/strided_slice_2/stack_1", "op": "Const", "attr": {"value": {"tensor": {"dtype": "DT_INT32", "tensorShape": {"dim": [{"size": "1"}]}}}, "dtype": {"type": "DT_INT32"}}}, {"name": "bert/encoder/layer_23/ffn_layer_2/output/strided_slice_2/stack_2", "op": "Const", "attr": {"value": {"tensor": {"dtype": "DT_INT32", "tensorShape": {"dim": [{"size": "1"}]}}}, "dtype": {"type": "DT_INT32"}}}, {"name": "bert/encoder/layer_23/ffn_layer_2/intermediate/dense/Reshape/shape/1", "op": "Const", "attr": {"dtype": {"type": "DT_INT32"}, "value": {"tensor": {"dtype": "DT_INT32", "tensorShape": {}}}}}, {"name": "bert/encoder/layer_23/ffn_layer_2/intermediate/dense/kernel", "op": "Const", "attr": {"dtype": {"type": "DT_FLOAT"}, "value": {"tensor": {"dtype": "DT_FLOAT", "tensorShape": {"dim": [{"size": "128"}, {"size": "512"}]}}}}}, {"name": "bert/encoder/layer_23/ffn_layer_2/intermediate/dense/bias", "op": "Const", "attr": {"value": {"tensor": {"dtype": "DT_FLOAT", "tensorShape": {"dim": [{"size": "512"}]}}}, "dtype": {"type": "DT_FLOAT"}}}, {"name": "bert/encoder/layer_23/ffn_layer_2/intermediate/strided_slice_2/stack", "op": "Const", "attr": {"value": {"tensor": {"dtype": "DT_INT32", "tensorShape": {"dim": [{"size": "1"}]}}}, "dtype": {"type": "DT_INT32"}}}, {"name": "bert/encoder/layer_23/ffn_layer_2/intermediate/strided_slice_2/stack_1", "op": "Const", "attr": {"value": {"tensor": {"dtype": "DT_INT32", "tensorShape": {"dim": [{"size": "1"}]}}}, "dtype": {"type": "DT_INT32"}}}, {"name": "bert/encoder/layer_23/ffn_layer_2/intermediate/strided_slice_2/stack_2", "op": "Const", "attr": {"value": {"tensor": {"dtype": "DT_INT32", "tensorShape": {"dim": [{"size": "1"}]}}}, "dtype": {"type": "DT_INT32"}}}, {"name": "bert/encoder/layer_23/ffn_layer_2/intermediate/strided_slice_3/stack", "op": "Const", "attr": {"dtype": {"type": "DT_INT32"}, "value": {"tensor": {"dtype": "DT_INT32", "tensorShape": {"dim": [{"size": "1"}]}}}}}, {"name": "bert/encoder/layer_23/ffn_layer_2/intermediate/strided_slice_3/stack_1", "op": "Const", "attr": {"dtype": {"type": "DT_INT32"}, "value": {"tensor": {"dtype": "DT_INT32", "tensorShape": {"dim": [{"size": "1"}]}}}}}, {"name": "bert/encoder/layer_23/ffn_layer_2/intermediate/strided_slice_3/stack_2", "op": "Const", "attr": {"dtype": {"type": "DT_INT32"}, "value": {"tensor": {"dtype": "DT_INT32", "tensorShape": {"dim": [{"size": "1"}]}}}}}, {"name": "bert/encoder/layer_23/ffn_layer_2/intermediate/dense/Reshape_1/shape/2", "op": "Const", "attr": {"value": {"tensor": {"dtype": "DT_INT32", "tensorShape": {}}}, "dtype": {"type": "DT_INT32"}}}, {"name": "bert/encoder/layer_23/ffn_layer_2/output/strided_slice_3/stack", "op": "Const", "attr": {"dtype": {"type": "DT_INT32"}, "value": {"tensor": {"dtype": "DT_INT32", "tensorShape": {"dim": [{"size": "1"}]}}}}}, {"name": "bert/encoder/layer_23/ffn_layer_2/output/strided_slice_3/stack_1", "op": "Const", "attr": {"dtype": {"type": "DT_INT32"}, "value": {"tensor": {"dtype": "DT_INT32", "tensorShape": {"dim": [{"size": "1"}]}}}}}, {"name": "bert/encoder/layer_23/ffn_layer_2/output/strided_slice_3/stack_2", "op": "Const", "attr": {"dtype": {"type": "DT_INT32"}, "value": {"tensor": {"dtype": "DT_INT32", "tensorShape": {"dim": [{"size": "1"}]}}}}}, {"name": "bert/encoder/layer_23/ffn_layer_2/output/dense/Reshape_1/shape/2", "op": "Const", "attr": {"value": {"tensor": {"dtype": "DT_INT32", "tensorShape": {}}}, "dtype": {"type": "DT_INT32"}}}, {"name": "bert/encoder/layer_23/ffn_layer_1/output/dense/kernel", "op": "Const", "attr": {"dtype": {"type": "DT_FLOAT"}, "value": {"tensor": {"dtype": "DT_FLOAT", "tensorShape": {"dim": [{"size": "512"}, {"size": "128"}]}}}}}, {"name": "bert/encoder/layer_23/ffn_layer_1/output/dense/bias", "op": "Const", "attr": {"dtype": {"type": "DT_FLOAT"}, "value": {"tensor": {"dtype": "DT_FLOAT", "tensorShape": {"dim": [{"size": "128"}]}}}}}, {"name": "bert/encoder/layer_23/ffn_layer_1/output/strided_slice_2/stack", "op": "Const", "attr": {"dtype": {"type": "DT_INT32"}, "value": {"tensor": {"dtype": "DT_INT32", "tensorShape": {"dim": [{"size": "1"}]}}}}}, {"name": "bert/encoder/layer_23/ffn_layer_1/output/strided_slice_2/stack_1", "op": "Const", "attr": {"dtype": {"type": "DT_INT32"}, "value": {"tensor": {"dtype": "DT_INT32", "tensorShape": {"dim": [{"size": "1"}]}}}}}, {"name": "bert/encoder/layer_23/ffn_layer_1/output/strided_slice_2/stack_2", "op": "Const", "attr": {"value": {"tensor": {"dtype": "DT_INT32", "tensorShape": {"dim": [{"size": "1"}]}}}, "dtype": {"type": "DT_INT32"}}}, {"name": "bert/encoder/layer_23/ffn_layer_1/intermediate/dense/Reshape/shape/1", "op": "Const", "attr": {"dtype": {"type": "DT_INT32"}, "value": {"tensor": {"dtype": "DT_INT32", "tensorShape": {}}}}}, {"name": "bert/encoder/layer_23/ffn_layer_1/intermediate/dense/kernel", "op": "Const", "attr": {"dtype": {"type": "DT_FLOAT"}, "value": {"tensor": {"dtype": "DT_FLOAT", "tensorShape": {"dim": [{"size": "128"}, {"size": "512"}]}}}}}, {"name": "bert/encoder/layer_23/ffn_layer_1/intermediate/dense/bias", "op": "Const", "attr": {"value": {"tensor": {"dtype": "DT_FLOAT", "tensorShape": {"dim": [{"size": "512"}]}}}, "dtype": {"type": "DT_FLOAT"}}}, {"name": "bert/encoder/layer_23/ffn_layer_1/intermediate/strided_slice_2/stack", "op": "Const", "attr": {"value": {"tensor": {"dtype": "DT_INT32", "tensorShape": {"dim": [{"size": "1"}]}}}, "dtype": {"type": "DT_INT32"}}}, {"name": "bert/encoder/layer_23/ffn_layer_1/intermediate/strided_slice_2/stack_1", "op": "Const", "attr": {"dtype": {"type": "DT_INT32"}, "value": {"tensor": {"dtype": "DT_INT32", "tensorShape": {"dim": [{"size": "1"}]}}}}}, {"name": "bert/encoder/layer_23/ffn_layer_1/intermediate/strided_slice_2/stack_2", "op": "Const", "attr": {"dtype": {"type": "DT_INT32"}, "value": {"tensor": {"dtype": "DT_INT32", "tensorShape": {"dim": [{"size": "1"}]}}}}}, {"name": "bert/encoder/layer_23/ffn_layer_1/intermediate/strided_slice_3/stack", "op": "Const", "attr": {"value": {"tensor": {"dtype": "DT_INT32", "tensorShape": {"dim": [{"size": "1"}]}}}, "dtype": {"type": "DT_INT32"}}}, {"name": "bert/encoder/layer_23/ffn_layer_1/intermediate/strided_slice_3/stack_1", "op": "Const", "attr": {"value": {"tensor": {"dtype": "DT_INT32", "tensorShape": {"dim": [{"size": "1"}]}}}, "dtype": {"type": "DT_INT32"}}}, {"name": "bert/encoder/layer_23/ffn_layer_1/intermediate/strided_slice_3/stack_2", "op": "Const", "attr": {"dtype": {"type": "DT_INT32"}, "value": {"tensor": {"dtype": "DT_INT32", "tensorShape": {"dim": [{"size": "1"}]}}}}}, {"name": "bert/encoder/layer_23/ffn_layer_1/intermediate/dense/Reshape_1/shape/2", "op": "Const", "attr": {"dtype": {"type": "DT_INT32"}, "value": {"tensor": {"dtype": "DT_INT32", "tensorShape": {}}}}}, {"name": "bert/encoder/layer_23/ffn_layer_1/output/strided_slice_3/stack", "op": "Const", "attr": {"dtype": {"type": "DT_INT32"}, "value": {"tensor": {"dtype": "DT_INT32", "tensorShape": {"dim": [{"size": "1"}]}}}}}, {"name": "bert/encoder/layer_23/ffn_layer_1/output/strided_slice_3/stack_1", "op": "Const", "attr": {"dtype": {"type": "DT_INT32"}, "value": {"tensor": {"dtype": "DT_INT32", "tensorShape": {"dim": [{"size": "1"}]}}}}}, {"name": "bert/encoder/layer_23/ffn_layer_1/output/strided_slice_3/stack_2", "op": "Const", "attr": {"dtype": {"type": "DT_INT32"}, "value": {"tensor": {"dtype": "DT_INT32", "tensorShape": {"dim": [{"size": "1"}]}}}}}, {"name": "bert/encoder/layer_23/ffn_layer_1/output/dense/Reshape_1/shape/2", "op": "Const", "attr": {"dtype": {"type": "DT_INT32"}, "value": {"tensor": {"dtype": "DT_INT32", "tensorShape": {}}}}}, {"name": "bert/encoder/layer_23/ffn_layer_0/output/dense/kernel", "op": "Const", "attr": {"dtype": {"type": "DT_FLOAT"}, "value": {"tensor": {"dtype": "DT_FLOAT", "tensorShape": {"dim": [{"size": "512"}, {"size": "128"}]}}}}}, {"name": "bert/encoder/layer_23/ffn_layer_0/output/dense/bias", "op": "Const", "attr": {"dtype": {"type": "DT_FLOAT"}, "value": {"tensor": {"dtype": "DT_FLOAT", "tensorShape": {"dim": [{"size": "128"}]}}}}}, {"name": "bert/encoder/layer_23/ffn_layer_0/output/strided_slice_2/stack", "op": "Const", "attr": {"value": {"tensor": {"dtype": "DT_INT32", "tensorShape": {"dim": [{"size": "1"}]}}}, "dtype": {"type": "DT_INT32"}}}, {"name": "bert/encoder/layer_23/ffn_layer_0/output/strided_slice_2/stack_1", "op": "Const", "attr": {"value": {"tensor": {"dtype": "DT_INT32", "tensorShape": {"dim": [{"size": "1"}]}}}, "dtype": {"type": "DT_INT32"}}}, {"name": "bert/encoder/layer_23/ffn_layer_0/output/strided_slice_2/stack_2", "op": "Const", "attr": {"dtype": {"type": "DT_INT32"}, "value": {"tensor": {"dtype": "DT_INT32", "tensorShape": {"dim": [{"size": "1"}]}}}}}, {"name": "bert/encoder/layer_23/ffn_layer_0/intermediate/dense/Reshape/shape/1", "op": "Const", "attr": {"value": {"tensor": {"dtype": "DT_INT32", "tensorShape": {}}}, "dtype": {"type": "DT_INT32"}}}, {"name": "bert/encoder/layer_23/ffn_layer_0/intermediate/dense/kernel", "op": "Const", "attr": {"dtype": {"type": "DT_FLOAT"}, "value": {"tensor": {"dtype": "DT_FLOAT", "tensorShape": {"dim": [{"size": "128"}, {"size": "512"}]}}}}}, {"name": "bert/encoder/layer_23/ffn_layer_0/intermediate/dense/bias", "op": "Const", "attr": {"value": {"tensor": {"dtype": "DT_FLOAT", "tensorShape": {"dim": [{"size": "512"}]}}}, "dtype": {"type": "DT_FLOAT"}}}, {"name": "bert/encoder/layer_23/ffn_layer_0/intermediate/strided_slice_2/stack", "op": "Const", "attr": {"value": {"tensor": {"dtype": "DT_INT32", "tensorShape": {"dim": [{"size": "1"}]}}}, "dtype": {"type": "DT_INT32"}}}, {"name": "bert/encoder/layer_23/ffn_layer_0/intermediate/strided_slice_2/stack_1", "op": "Const", "attr": {"value": {"tensor": {"dtype": "DT_INT32", "tensorShape": {"dim": [{"size": "1"}]}}}, "dtype": {"type": "DT_INT32"}}}, {"name": "bert/encoder/layer_23/ffn_layer_0/intermediate/strided_slice_2/stack_2", "op": "Const", "attr": {"value": {"tensor": {"dtype": "DT_INT32", "tensorShape": {"dim": [{"size": "1"}]}}}, "dtype": {"type": "DT_INT32"}}}, {"name": "bert/encoder/layer_23/ffn_layer_0/intermediate/strided_slice_3/stack", "op": "Const", "attr": {"dtype": {"type": "DT_INT32"}, "value": {"tensor": {"dtype": "DT_INT32", "tensorShape": {"dim": [{"size": "1"}]}}}}}, {"name": "bert/encoder/layer_23/ffn_layer_0/intermediate/strided_slice_3/stack_1", "op": "Const", "attr": {"dtype": {"type": "DT_INT32"}, "value": {"tensor": {"dtype": "DT_INT32", "tensorShape": {"dim": [{"size": "1"}]}}}}}, {"name": "bert/encoder/layer_23/ffn_layer_0/intermediate/strided_slice_3/stack_2", "op": "Const", "attr": {"value": {"tensor": {"dtype": "DT_INT32", "tensorShape": {"dim": [{"size": "1"}]}}}, "dtype": {"type": "DT_INT32"}}}, {"name": "bert/encoder/layer_23/ffn_layer_0/intermediate/dense/Reshape_1/shape/2", "op": "Const", "attr": {"dtype": {"type": "DT_INT32"}, "value": {"tensor": {"dtype": "DT_INT32", "tensorShape": {}}}}}, {"name": "bert/encoder/layer_23/ffn_layer_0/output/strided_slice_3/stack", "op": "Const", "attr": {"dtype": {"type": "DT_INT32"}, "value": {"tensor": {"dtype": "DT_INT32", "tensorShape": {"dim": [{"size": "1"}]}}}}}, {"name": "bert/encoder/layer_23/ffn_layer_0/output/strided_slice_3/stack_1", "op": "Const", "attr": {"value": {"tensor": {"dtype": "DT_INT32", "tensorShape": {"dim": [{"size": "1"}]}}}, "dtype": {"type": "DT_INT32"}}}, {"name": "bert/encoder/layer_23/ffn_layer_0/output/strided_slice_3/stack_2", "op": "Const", "attr": {"value": {"tensor": {"dtype": "DT_INT32", "tensorShape": {"dim": [{"size": "1"}]}}}, "dtype": {"type": "DT_INT32"}}}, {"name": "bert/encoder/layer_23/ffn_layer_0/output/dense/Reshape_1/shape/2", "op": "Const", "attr": {"value": {"tensor": {"dtype": "DT_INT32", "tensorShape": {}}}, "dtype": {"type": "DT_INT32"}}}, {"name": "bert/encoder/layer_23/attention/output/dense/Reshape/shape/1", "op": "Const", "attr": {"value": {"tensor": {"dtype": "DT_INT32", "tensorShape": {}}}, "dtype": {"type": "DT_INT32"}}}, {"name": "bert/encoder/layer_23/attention/output/dense/kernel", "op": "Const", "attr": {"dtype": {"type": "DT_FLOAT"}, "value": {"tensor": {"dtype": "DT_FLOAT", "tensorShape": {"dim": [{"size": "128"}, {"size": "128"}]}}}}}, {"name": "bert/encoder/layer_23/attention/output/dense/bias", "op": "Const", "attr": {"value": {"tensor": {"dtype": "DT_FLOAT", "tensorShape": {"dim": [{"size": "128"}]}}}, "dtype": {"type": "DT_FLOAT"}}}, {"name": "bert/encoder/layer_23/attention/output/strided_slice/stack", "op": "Const", "attr": {"dtype": {"type": "DT_INT32"}, "value": {"tensor": {"dtype": "DT_INT32", "tensorShape": {"dim": [{"size": "1"}]}}}}}, {"name": "bert/encoder/layer_23/attention/output/strided_slice/stack_1", "op": "Const", "attr": {"value": {"tensor": {"dtype": "DT_INT32", "tensorShape": {"dim": [{"size": "1"}]}}}, "dtype": {"type": "DT_INT32"}}}, {"name": "bert/encoder/layer_23/attention/output/strided_slice/stack_2", "op": "Const", "attr": {"dtype": {"type": "DT_INT32"}, "value": {"tensor": {"dtype": "DT_INT32", "tensorShape": {"dim": [{"size": "1"}]}}}}}, {"name": "bert/encoder/layer_23/attention/self/dropout/Const", "op": "Const", "attr": {"value": {"tensor": {"dtype": "DT_FLOAT", "tensorShape": {}}}, "dtype": {"type": "DT_FLOAT"}}}, {"name": "bert/encoder/layer_23/attention/self/query/Reshape/shape/1", "op": "Const", "attr": {"dtype": {"type": "DT_INT32"}, "value": {"tensor": {"dtype": "DT_INT32", "tensorShape": {}}}}}, {"name": "bert/encoder/layer_23/attention/self/query/kernel", "op": "Const", "attr": {"value": {"tensor": {"dtype": "DT_FLOAT", "tensorShape": {"dim": [{"size": "128"}, {"size": "128"}]}}}, "dtype": {"type": "DT_FLOAT"}}}, {"name": "bert/encoder/layer_23/attention/self/query/bias", "op": "Const", "attr": {"value": {"tensor": {"dtype": "DT_FLOAT", "tensorShape": {"dim": [{"size": "128"}]}}}, "dtype": {"type": "DT_FLOAT"}}}, {"name": "bert/encoder/layer_23/attention/self/strided_slice_4/stack", "op": "Const", "attr": {"dtype": {"type": "DT_INT32"}, "value": {"tensor": {"dtype": "DT_INT32", "tensorShape": {"dim": [{"size": "1"}]}}}}}, {"name": "bert/encoder/layer_23/attention/self/strided_slice_4/stack_1", "op": "Const", "attr": {"value": {"tensor": {"dtype": "DT_INT32", "tensorShape": {"dim": [{"size": "1"}]}}}, "dtype": {"type": "DT_INT32"}}}, {"name": "bert/encoder/layer_23/attention/self/strided_slice_4/stack_2", "op": "Const", "attr": {"dtype": {"type": "DT_INT32"}, "value": {"tensor": {"dtype": "DT_INT32", "tensorShape": {"dim": [{"size": "1"}]}}}}}, {"name": "bert/encoder/layer_23/attention/self/strided_slice_5/stack", "op": "Const", "attr": {"value": {"tensor": {"dtype": "DT_INT32", "tensorShape": {"dim": [{"size": "1"}]}}}, "dtype": {"type": "DT_INT32"}}}, {"name": "bert/encoder/layer_23/attention/self/strided_slice_5/stack_1", "op": "Const", "attr": {"dtype": {"type": "DT_INT32"}, "value": {"tensor": {"dtype": "DT_INT32", "tensorShape": {"dim": [{"size": "1"}]}}}}}, {"name": "bert/encoder/layer_23/attention/self/strided_slice_5/stack_2", "op": "Const", "attr": {"value": {"tensor": {"dtype": "DT_INT32", "tensorShape": {"dim": [{"size": "1"}]}}}, "dtype": {"type": "DT_INT32"}}}, {"name": "bert/encoder/layer_23/attention/self/query/Reshape_1/shape/2", "op": "Const", "attr": {"value": {"tensor": {"dtype": "DT_INT32", "tensorShape": {}}}, "dtype": {"type": "DT_INT32"}}}, {"name": "bert/encoder/layer_23/attention/self/query/Reshape_1/shape/3", "op": "Const", "attr": {"dtype": {"type": "DT_INT32"}, "value": {"tensor": {"dtype": "DT_INT32", "tensorShape": {}}}}}, {"name": "bert/encoder/layer_23/attention/self/transpose/perm", "op": "Const", "attr": {"dtype": {"type": "DT_INT32"}, "value": {"tensor": {"dtype": "DT_INT32", "tensorShape": {"dim": [{"size": "4"}]}}}}}, {"name": "bert/encoder/layer_23/attention/self/key/Reshape/shape/1", "op": "Const", "attr": {"value": {"tensor": {"dtype": "DT_INT32", "tensorShape": {}}}, "dtype": {"type": "DT_INT32"}}}, {"name": "bert/encoder/layer_23/attention/self/key/kernel", "op": "Const", "attr": {"dtype": {"type": "DT_FLOAT"}, "value": {"tensor": {"dtype": "DT_FLOAT", "tensorShape": {"dim": [{"size": "128"}, {"size": "128"}]}}}}}, {"name": "bert/encoder/layer_23/attention/self/key/bias", "op": "Const", "attr": {"dtype": {"type": "DT_FLOAT"}, "value": {"tensor": {"dtype": "DT_FLOAT", "tensorShape": {"dim": [{"size": "128"}]}}}}}, {"name": "bert/encoder/layer_23/attention/self/strided_slice_6/stack", "op": "Const", "attr": {"dtype": {"type": "DT_INT32"}, "value": {"tensor": {"dtype": "DT_INT32", "tensorShape": {"dim": [{"size": "1"}]}}}}}, {"name": "bert/encoder/layer_23/attention/self/strided_slice_6/stack_1", "op": "Const", "attr": {"dtype": {"type": "DT_INT32"}, "value": {"tensor": {"dtype": "DT_INT32", "tensorShape": {"dim": [{"size": "1"}]}}}}}, {"name": "bert/encoder/layer_23/attention/self/strided_slice_6/stack_2", "op": "Const", "attr": {"value": {"tensor": {"dtype": "DT_INT32", "tensorShape": {"dim": [{"size": "1"}]}}}, "dtype": {"type": "DT_INT32"}}}, {"name": "bert/encoder/layer_23/bottleneck/attention/dense/Tensordot/Const", "op": "Const", "attr": {"dtype": {"type": "DT_INT32"}, "value": {"tensor": {"dtype": "DT_INT32", "tensorShape": {"dim": [{"size": "1"}]}}}}}, {"name": "bert/encoder/layer_23/bottleneck/attention/dense/Tensordot/axes", "op": "Const", "attr": {"dtype": {"type": "DT_INT32"}, "value": {"tensor": {"dtype": "DT_INT32", "tensorShape": {"dim": [{"size": "1"}]}}}}}, {"name": "bert/encoder/layer_23/bottleneck/attention/dense/Tensordot/GatherV2_1/axis", "op": "Const", "attr": {"dtype": {"type": "DT_INT32"}, "value": {"tensor": {"dtype": "DT_INT32", "tensorShape": {}}}}}, {"name": "bert/encoder/layer_23/bottleneck/attention/dense/Tensordot/Const_1", "op": "Const", "attr": {"dtype": {"type": "DT_INT32"}, "value": {"tensor": {"dtype": "DT_INT32", "tensorShape": {"dim": [{"size": "1"}]}}}}}, {"name": "bert/encoder/layer_23/bottleneck/attention/dense/kernel", "op": "Const", "attr": {"value": {"tensor": {"dtype": "DT_FLOAT", "tensorShape": {"dim": [{"size": "512"}, {"size": "128"}]}}}, "dtype": {"type": "DT_FLOAT"}}}, {"name": "bert/encoder/layer_23/bottleneck/attention/dense/Tensordot/free", "op": "Const", "attr": {"value": {"tensor": {"dtype": "DT_INT32", "tensorShape": {"dim": [{"size": "2"}]}}}, "dtype": {"type": "DT_INT32"}}}, {"name": "bert/encoder/layer_23/bottleneck/attention/dense/Tensordot/GatherV2/axis", "op": "Const", "attr": {"dtype": {"type": "DT_INT32"}, "value": {"tensor": {"dtype": "DT_INT32", "tensorShape": {}}}}}, {"name": "bert/encoder/layer_23/bottleneck/attention/dense/Tensordot/Const_2", "op": "Const", "attr": {"dtype": {"type": "DT_INT32"}, "value": {"tensor": {"dtype": "DT_INT32", "tensorShape": {"dim": [{"size": "1"}]}}}}}, {"name": "bert/encoder/layer_23/bottleneck/attention/dense/Tensordot/concat_1/axis", "op": "Const", "attr": {"value": {"tensor": {"dtype": "DT_INT32", "tensorShape": {}}}, "dtype": {"type": "DT_INT32"}}}, {"name": "bert/encoder/layer_23/bottleneck/attention/dense/bias", "op": "Const", "attr": {"value": {"tensor": {"dtype": "DT_FLOAT", "tensorShape": {"dim": [{"size": "128"}]}}}, "dtype": {"type": "DT_FLOAT"}}}, {"name": "bert/encoder/layer_23/bottleneck/attention/FakeLayerNorm/gamma", "op": "Const", "attr": {"value": {"tensor": {"dtype": "DT_FLOAT", "tensorShape": {"dim": [{"size": "128"}]}}}, "dtype": {"type": "DT_FLOAT"}}}, {"name": "bert/encoder/layer_23/bottleneck/attention/FakeLayerNorm/beta", "op": "Const", "attr": {"dtype": {"type": "DT_FLOAT"}, "value": {"tensor": {"dtype": "DT_FLOAT", "tensorShape": {"dim": [{"size": "128"}]}}}}}, {"name": "bert/encoder/layer_23/attention/self/strided_slice_7/stack", "op": "Const", "attr": {"value": {"tensor": {"dtype": "DT_INT32", "tensorShape": {"dim": [{"size": "1"}]}}}, "dtype": {"type": "DT_INT32"}}}, {"name": "bert/encoder/layer_23/attention/self/strided_slice_7/stack_1", "op": "Const", "attr": {"value": {"tensor": {"dtype": "DT_INT32", "tensorShape": {"dim": [{"size": "1"}]}}}, "dtype": {"type": "DT_INT32"}}}, {"name": "bert/encoder/layer_23/attention/self/strided_slice_7/stack_2", "op": "Const", "attr": {"dtype": {"type": "DT_INT32"}, "value": {"tensor": {"dtype": "DT_INT32", "tensorShape": {"dim": [{"size": "1"}]}}}}}, {"name": "bert/encoder/layer_23/attention/self/key/Reshape_1/shape/2", "op": "Const", "attr": {"value": {"tensor": {"dtype": "DT_INT32", "tensorShape": {}}}, "dtype": {"type": "DT_INT32"}}}, {"name": "bert/encoder/layer_23/attention/self/key/Reshape_1/shape/3", "op": "Const", "attr": {"value": {"tensor": {"dtype": "DT_INT32", "tensorShape": {}}}, "dtype": {"type": "DT_INT32"}}}, {"name": "bert/encoder/layer_23/attention/self/transpose_1/perm", "op": "Const", "attr": {"value": {"tensor": {"dtype": "DT_INT32", "tensorShape": {"dim": [{"size": "4"}]}}}, "dtype": {"type": "DT_INT32"}}}, {"name": "bert/encoder/layer_23/attention/self/Mul/y", "op": "Const", "attr": {"value": {"tensor": {"dtype": "DT_FLOAT", "tensorShape": {}}}, "dtype": {"type": "DT_FLOAT"}}}, {"name": "bert/encoder/layer_23/attention/self/Add/x", "op": "Const", "attr": {"dtype": {"type": "DT_FLOAT"}, "value": {"tensor": {"dtype": "DT_FLOAT", "tensorShape": {}}}}}, {"name": "bert/encoder/layer_23/attention/self/ExpandDims/dim", "op": "Const", "attr": {"value": {"tensor": {"dtype": "DT_INT32", "tensorShape": {"dim": [{"size": "1"}]}}}, "dtype": {"type": "DT_INT32"}}}, {"name": "bert/encoder/layer_23/attention/self/mul_1/y", "op": "Const", "attr": {"value": {"tensor": {"dtype": "DT_FLOAT", "tensorShape": {}}}, "dtype": {"type": "DT_FLOAT"}}}, {"name": "bert/encoder/layer_23/attention/self/dropout/GreaterEqual/y", "op": "Const", "attr": {"dtype": {"type": "DT_FLOAT"}, "value": {"tensor": {"dtype": "DT_FLOAT", "tensorShape": {}}}}}, {"name": "bert/encoder/layer_23/attention/self/value/Reshape/shape/1", "op": "Const", "attr": {"dtype": {"type": "DT_INT32"}, "value": {"tensor": {"dtype": "DT_INT32", "tensorShape": {}}}}}, {"name": "bert/encoder/layer_23/attention/self/value/kernel", "op": "Const", "attr": {"value": {"tensor": {"dtype": "DT_FLOAT", "tensorShape": {"dim": [{"size": "512"}, {"size": "128"}]}}}, "dtype": {"type": "DT_FLOAT"}}}, {"name": "bert/encoder/layer_23/attention/self/value/bias", "op": "Const", "attr": {"dtype": {"type": "DT_FLOAT"}, "value": {"tensor": {"dtype": "DT_FLOAT", "tensorShape": {"dim": [{"size": "128"}]}}}}}, {"name": "bert/encoder/layer_23/attention/self/strided_slice_8/stack", "op": "Const", "attr": {"dtype": {"type": "DT_INT32"}, "value": {"tensor": {"dtype": "DT_INT32", "tensorShape": {"dim": [{"size": "1"}]}}}}}, {"name": "bert/encoder/layer_23/attention/self/strided_slice_8/stack_1", "op": "Const", "attr": {"dtype": {"type": "DT_INT32"}, "value": {"tensor": {"dtype": "DT_INT32", "tensorShape": {"dim": [{"size": "1"}]}}}}}, {"name": "bert/encoder/layer_23/attention/self/strided_slice_8/stack_2", "op": "Const", "attr": {"value": {"tensor": {"dtype": "DT_INT32", "tensorShape": {"dim": [{"size": "1"}]}}}, "dtype": {"type": "DT_INT32"}}}, {"name": "bert/encoder/layer_23/attention/self/strided_slice_9/stack", "op": "Const", "attr": {"value": {"tensor": {"dtype": "DT_INT32", "tensorShape": {"dim": [{"size": "1"}]}}}, "dtype": {"type": "DT_INT32"}}}, {"name": "bert/encoder/layer_23/attention/self/strided_slice_9/stack_1", "op": "Const", "attr": {"value": {"tensor": {"dtype": "DT_INT32", "tensorShape": {"dim": [{"size": "1"}]}}}, "dtype": {"type": "DT_INT32"}}}, {"name": "bert/encoder/layer_23/attention/self/strided_slice_9/stack_2", "op": "Const", "attr": {"value": {"tensor": {"dtype": "DT_INT32", "tensorShape": {"dim": [{"size": "1"}]}}}, "dtype": {"type": "DT_INT32"}}}, {"name": "bert/encoder/layer_23/attention/self/value/Reshape_1/shape/2", "op": "Const", "attr": {"value": {"tensor": {"dtype": "DT_INT32", "tensorShape": {}}}, "dtype": {"type": "DT_INT32"}}}, {"name": "bert/encoder/layer_23/attention/self/value/Reshape_1/shape/3", "op": "Const", "attr": {"dtype": {"type": "DT_INT32"}, "value": {"tensor": {"dtype": "DT_INT32", "tensorShape": {}}}}}, {"name": "bert/encoder/layer_23/attention/self/transpose_2/perm", "op": "Const", "attr": {"value": {"tensor": {"dtype": "DT_INT32", "tensorShape": {"dim": [{"size": "4"}]}}}, "dtype": {"type": "DT_INT32"}}}, {"name": "bert/encoder/layer_23/attention/self/transpose_3/perm", "op": "Const", "attr": {"value": {"tensor": {"dtype": "DT_INT32", "tensorShape": {"dim": [{"size": "4"}]}}}, "dtype": {"type": "DT_INT32"}}}, {"name": "bert/encoder/layer_23/attention/output/strided_slice_3/stack", "op": "Const", "attr": {"value": {"tensor": {"dtype": "DT_INT32", "tensorShape": {"dim": [{"size": "1"}]}}}, "dtype": {"type": "DT_INT32"}}}, {"name": "bert/encoder/layer_23/attention/output/strided_slice_3/stack_1", "op": "Const", "attr": {"dtype": {"type": "DT_INT32"}, "value": {"tensor": {"dtype": "DT_INT32", "tensorShape": {"dim": [{"size": "1"}]}}}}}, {"name": "bert/encoder/layer_23/attention/output/strided_slice_3/stack_2", "op": "Const", "attr": {"dtype": {"type": "DT_INT32"}, "value": {"tensor": {"dtype": "DT_INT32", "tensorShape": {"dim": [{"size": "1"}]}}}}}, {"name": "bert/encoder/layer_23/attention/output/dense/Reshape_1/shape/2", "op": "Const", "attr": {"value": {"tensor": {"dtype": "DT_INT32", "tensorShape": {}}}, "dtype": {"type": "DT_INT32"}}}, {"name": "bert/encoder/layer_23/bottleneck/input/dense/Reshape/shape/1", "op": "Const", "attr": {"value": {"tensor": {"dtype": "DT_INT32", "tensorShape": {}}}, "dtype": {"type": "DT_INT32"}}}, {"name": "bert/encoder/layer_23/bottleneck/input/dense/kernel", "op": "Const", "attr": {"dtype": {"type": "DT_FLOAT"}, "value": {"tensor": {"dtype": "DT_FLOAT", "tensorShape": {"dim": [{"size": "512"}, {"size": "128"}]}}}}}, {"name": "bert/encoder/layer_23/bottleneck/input/dense/bias", "op": "Const", "attr": {"dtype": {"type": "DT_FLOAT"}, "value": {"tensor": {"dtype": "DT_FLOAT", "tensorShape": {"dim": [{"size": "128"}]}}}}}, {"name": "bert/encoder/layer_23/bottleneck/input/strided_slice_2/stack", "op": "Const", "attr": {"value": {"tensor": {"dtype": "DT_INT32", "tensorShape": {"dim": [{"size": "1"}]}}}, "dtype": {"type": "DT_INT32"}}}, {"name": "bert/encoder/layer_23/bottleneck/input/strided_slice_2/stack_1", "op": "Const", "attr": {"value": {"tensor": {"dtype": "DT_INT32", "tensorShape": {"dim": [{"size": "1"}]}}}, "dtype": {"type": "DT_INT32"}}}, {"name": "bert/encoder/layer_23/bottleneck/input/strided_slice_2/stack_2", "op": "Const", "attr": {"dtype": {"type": "DT_INT32"}, "value": {"tensor": {"dtype": "DT_INT32", "tensorShape": {"dim": [{"size": "1"}]}}}}}, {"name": "bert/encoder/layer_23/bottleneck/input/strided_slice_3/stack", "op": "Const", "attr": {"dtype": {"type": "DT_INT32"}, "value": {"tensor": {"dtype": "DT_INT32", "tensorShape": {"dim": [{"size": "1"}]}}}}}, {"name": "bert/encoder/layer_23/bottleneck/input/strided_slice_3/stack_1", "op": "Const", "attr": {"value": {"tensor": {"dtype": "DT_INT32", "tensorShape": {"dim": [{"size": "1"}]}}}, "dtype": {"type": "DT_INT32"}}}, {"name": "bert/encoder/layer_23/bottleneck/input/strided_slice_3/stack_2", "op": "Const", "attr": {"value": {"tensor": {"dtype": "DT_INT32", "tensorShape": {"dim": [{"size": "1"}]}}}, "dtype": {"type": "DT_INT32"}}}, {"name": "bert/encoder/layer_23/bottleneck/input/dense/Reshape_1/shape/2", "op": "Const", "attr": {"value": {"tensor": {"dtype": "DT_INT32", "tensorShape": {}}}, "dtype": {"type": "DT_INT32"}}}, {"name": "bert/encoder/layer_23/bottleneck/input/FakeLayerNorm/gamma", "op": "Const", "attr": {"value": {"tensor": {"dtype": "DT_FLOAT", "tensorShape": {"dim": [{"size": "128"}]}}}, "dtype": {"type": "DT_FLOAT"}}}, {"name": "bert/encoder/layer_23/bottleneck/input/FakeLayerNorm/beta", "op": "Const", "attr": {"value": {"tensor": {"dtype": "DT_FLOAT", "tensorShape": {"dim": [{"size": "128"}]}}}, "dtype": {"type": "DT_FLOAT"}}}, {"name": "bert/encoder/layer_23/attention/output/FakeLayerNorm/gamma", "op": "Const", "attr": {"dtype": {"type": "DT_FLOAT"}, "value": {"tensor": {"dtype": "DT_FLOAT", "tensorShape": {"dim": [{"size": "128"}]}}}}}, {"name": "bert/encoder/layer_23/attention/output/FakeLayerNorm/beta", "op": "Const", "attr": {"value": {"tensor": {"dtype": "DT_FLOAT", "tensorShape": {"dim": [{"size": "128"}]}}}, "dtype": {"type": "DT_FLOAT"}}}, {"name": "bert/encoder/layer_23/ffn_layer_0/output/FakeLayerNorm/gamma", "op": "Const", "attr": {"dtype": {"type": "DT_FLOAT"}, "value": {"tensor": {"dtype": "DT_FLOAT", "tensorShape": {"dim": [{"size": "128"}]}}}}}, {"name": "bert/encoder/layer_23/ffn_layer_0/output/FakeLayerNorm/beta", "op": "Const", "attr": {"dtype": {"type": "DT_FLOAT"}, "value": {"tensor": {"dtype": "DT_FLOAT", "tensorShape": {"dim": [{"size": "128"}]}}}}}, {"name": "bert/encoder/layer_23/ffn_layer_1/output/FakeLayerNorm/gamma", "op": "Const", "attr": {"dtype": {"type": "DT_FLOAT"}, "value": {"tensor": {"dtype": "DT_FLOAT", "tensorShape": {"dim": [{"size": "128"}]}}}}}, {"name": "bert/encoder/layer_23/ffn_layer_1/output/FakeLayerNorm/beta", "op": "Const", "attr": {"value": {"tensor": {"dtype": "DT_FLOAT", "tensorShape": {"dim": [{"size": "128"}]}}}, "dtype": {"type": "DT_FLOAT"}}}, {"name": "bert/encoder/layer_23/ffn_layer_2/output/FakeLayerNorm/gamma", "op": "Const", "attr": {"value": {"tensor": {"dtype": "DT_FLOAT", "tensorShape": {"dim": [{"size": "128"}]}}}, "dtype": {"type": "DT_FLOAT"}}}, {"name": "bert/encoder/layer_23/ffn_layer_2/output/FakeLayerNorm/beta", "op": "Const", "attr": {"dtype": {"type": "DT_FLOAT"}, "value": {"tensor": {"dtype": "DT_FLOAT", "tensorShape": {"dim": [{"size": "128"}]}}}}}, {"name": "bert/encoder/layer_23/output/FakeLayerNorm/gamma", "op": "Const", "attr": {"dtype": {"type": "DT_FLOAT"}, "value": {"tensor": {"dtype": "DT_FLOAT", "tensorShape": {"dim": [{"size": "128"}]}}}}}, {"name": "bert/encoder/layer_23/output/FakeLayerNorm/beta", "op": "Const", "attr": {"value": {"tensor": {"dtype": "DT_FLOAT", "tensorShape": {"dim": [{"size": "128"}]}}}, "dtype": {"type": "DT_FLOAT"}}}, {"name": "bert/encoder/layer_23/output/bottleneck/strided_slice_3/stack", "op": "Const", "attr": {"value": {"tensor": {"dtype": "DT_INT32", "tensorShape": {"dim": [{"size": "1"}]}}}, "dtype": {"type": "DT_INT32"}}}, {"name": "bert/encoder/layer_23/output/bottleneck/strided_slice_3/stack_1", "op": "Const", "attr": {"dtype": {"type": "DT_INT32"}, "value": {"tensor": {"dtype": "DT_INT32", "tensorShape": {"dim": [{"size": "1"}]}}}}}, {"name": "bert/encoder/layer_23/output/bottleneck/strided_slice_3/stack_2", "op": "Const", "attr": {"dtype": {"type": "DT_INT32"}, "value": {"tensor": {"dtype": "DT_INT32", "tensorShape": {"dim": [{"size": "1"}]}}}}}, {"name": "bert/encoder/layer_23/output/bottleneck/dense/Reshape_1/shape/2", "op": "Const", "attr": {"value": {"tensor": {"dtype": "DT_INT32", "tensorShape": {}}}, "dtype": {"type": "DT_INT32"}}}, {"name": "bert/encoder/layer_22/output/bottleneck/dense/Reshape/shape/1", "op": "Const", "attr": {"value": {"tensor": {"dtype": "DT_INT32", "tensorShape": {}}}, "dtype": {"type": "DT_INT32"}}}, {"name": "bert/encoder/layer_22/output/bottleneck/dense/kernel", "op": "Const", "attr": {"dtype": {"type": "DT_FLOAT"}, "value": {"tensor": {"dtype": "DT_FLOAT", "tensorShape": {"dim": [{"size": "128"}, {"size": "512"}]}}}}}, {"name": "bert/encoder/layer_22/output/bottleneck/dense/bias", "op": "Const", "attr": {"dtype": {"type": "DT_FLOAT"}, "value": {"tensor": {"dtype": "DT_FLOAT", "tensorShape": {"dim": [{"size": "512"}]}}}}}, {"name": "bert/encoder/layer_22/output/bottleneck/strided_slice_2/stack", "op": "Const", "attr": {"dtype": {"type": "DT_INT32"}, "value": {"tensor": {"dtype": "DT_INT32", "tensorShape": {"dim": [{"size": "1"}]}}}}}, {"name": "bert/encoder/layer_22/output/bottleneck/strided_slice_2/stack_1", "op": "Const", "attr": {"dtype": {"type": "DT_INT32"}, "value": {"tensor": {"dtype": "DT_INT32", "tensorShape": {"dim": [{"size": "1"}]}}}}}, {"name": "bert/encoder/layer_22/output/bottleneck/strided_slice_2/stack_2", "op": "Const", "attr": {"dtype": {"type": "DT_INT32"}, "value": {"tensor": {"dtype": "DT_INT32", "tensorShape": {"dim": [{"size": "1"}]}}}}}, {"name": "bert/encoder/layer_22/output/dense/kernel", "op": "Const", "attr": {"value": {"tensor": {"dtype": "DT_FLOAT", "tensorShape": {"dim": [{"size": "512"}, {"size": "128"}]}}}, "dtype": {"type": "DT_FLOAT"}}}, {"name": "bert/encoder/layer_22/output/dense/bias", "op": "Const", "attr": {"dtype": {"type": "DT_FLOAT"}, "value": {"tensor": {"dtype": "DT_FLOAT", "tensorShape": {"dim": [{"size": "128"}]}}}}}, {"name": "bert/encoder/layer_22/output/strided_slice_2/stack", "op": "Const", "attr": {"value": {"tensor": {"dtype": "DT_INT32", "tensorShape": {"dim": [{"size": "1"}]}}}, "dtype": {"type": "DT_INT32"}}}, {"name": "bert/encoder/layer_22/output/strided_slice_2/stack_1", "op": "Const", "attr": {"dtype": {"type": "DT_INT32"}, "value": {"tensor": {"dtype": "DT_INT32", "tensorShape": {"dim": [{"size": "1"}]}}}}}, {"name": "bert/encoder/layer_22/output/strided_slice_2/stack_2", "op": "Const", "attr": {"dtype": {"type": "DT_INT32"}, "value": {"tensor": {"dtype": "DT_INT32", "tensorShape": {"dim": [{"size": "1"}]}}}}}, {"name": "bert/encoder/layer_22/intermediate/dense/Reshape/shape/1", "op": "Const", "attr": {"dtype": {"type": "DT_INT32"}, "value": {"tensor": {"dtype": "DT_INT32", "tensorShape": {}}}}}, {"name": "bert/encoder/layer_22/intermediate/dense/kernel", "op": "Const", "attr": {"dtype": {"type": "DT_FLOAT"}, "value": {"tensor": {"dtype": "DT_FLOAT", "tensorShape": {"dim": [{"size": "128"}, {"size": "512"}]}}}}}, {"name": "bert/encoder/layer_22/intermediate/dense/bias", "op": "Const", "attr": {"dtype": {"type": "DT_FLOAT"}, "value": {"tensor": {"dtype": "DT_FLOAT", "tensorShape": {"dim": [{"size": "512"}]}}}}}, {"name": "bert/encoder/layer_22/intermediate/strided_slice_2/stack", "op": "Const", "attr": {"value": {"tensor": {"dtype": "DT_INT32", "tensorShape": {"dim": [{"size": "1"}]}}}, "dtype": {"type": "DT_INT32"}}}, {"name": "bert/encoder/layer_22/intermediate/strided_slice_2/stack_1", "op": "Const", "attr": {"value": {"tensor": {"dtype": "DT_INT32", "tensorShape": {"dim": [{"size": "1"}]}}}, "dtype": {"type": "DT_INT32"}}}, {"name": "bert/encoder/layer_22/intermediate/strided_slice_2/stack_2", "op": "Const", "attr": {"value": {"tensor": {"dtype": "DT_INT32", "tensorShape": {"dim": [{"size": "1"}]}}}, "dtype": {"type": "DT_INT32"}}}, {"name": "bert/encoder/layer_22/intermediate/strided_slice_3/stack", "op": "Const", "attr": {"dtype": {"type": "DT_INT32"}, "value": {"tensor": {"dtype": "DT_INT32", "tensorShape": {"dim": [{"size": "1"}]}}}}}, {"name": "bert/encoder/layer_22/intermediate/strided_slice_3/stack_1", "op": "Const", "attr": {"dtype": {"type": "DT_INT32"}, "value": {"tensor": {"dtype": "DT_INT32", "tensorShape": {"dim": [{"size": "1"}]}}}}}, {"name": "bert/encoder/layer_22/intermediate/strided_slice_3/stack_2", "op": "Const", "attr": {"value": {"tensor": {"dtype": "DT_INT32", "tensorShape": {"dim": [{"size": "1"}]}}}, "dtype": {"type": "DT_INT32"}}}, {"name": "bert/encoder/layer_22/intermediate/dense/Reshape_1/shape/2", "op": "Const", "attr": {"dtype": {"type": "DT_INT32"}, "value": {"tensor": {"dtype": "DT_INT32", "tensorShape": {}}}}}, {"name": "bert/encoder/layer_22/output/strided_slice_3/stack", "op": "Const", "attr": {"value": {"tensor": {"dtype": "DT_INT32", "tensorShape": {"dim": [{"size": "1"}]}}}, "dtype": {"type": "DT_INT32"}}}, {"name": "bert/encoder/layer_22/output/strided_slice_3/stack_1", "op": "Const", "attr": {"value": {"tensor": {"dtype": "DT_INT32", "tensorShape": {"dim": [{"size": "1"}]}}}, "dtype": {"type": "DT_INT32"}}}, {"name": "bert/encoder/layer_22/output/strided_slice_3/stack_2", "op": "Const", "attr": {"dtype": {"type": "DT_INT32"}, "value": {"tensor": {"dtype": "DT_INT32", "tensorShape": {"dim": [{"size": "1"}]}}}}}, {"name": "bert/encoder/layer_22/output/dense/Reshape_1/shape/2", "op": "Const", "attr": {"dtype": {"type": "DT_INT32"}, "value": {"tensor": {"dtype": "DT_INT32", "tensorShape": {}}}}}, {"name": "bert/encoder/layer_22/ffn_layer_2/output/dense/kernel", "op": "Const", "attr": {"dtype": {"type": "DT_FLOAT"}, "value": {"tensor": {"dtype": "DT_FLOAT", "tensorShape": {"dim": [{"size": "512"}, {"size": "128"}]}}}}}, {"name": "bert/encoder/layer_22/ffn_layer_2/output/dense/bias", "op": "Const", "attr": {"value": {"tensor": {"dtype": "DT_FLOAT", "tensorShape": {"dim": [{"size": "128"}]}}}, "dtype": {"type": "DT_FLOAT"}}}, {"name": "bert/encoder/layer_22/ffn_layer_2/output/strided_slice_2/stack", "op": "Const", "attr": {"dtype": {"type": "DT_INT32"}, "value": {"tensor": {"dtype": "DT_INT32", "tensorShape": {"dim": [{"size": "1"}]}}}}}, {"name": "bert/encoder/layer_22/ffn_layer_2/output/strided_slice_2/stack_1", "op": "Const", "attr": {"dtype": {"type": "DT_INT32"}, "value": {"tensor": {"dtype": "DT_INT32", "tensorShape": {"dim": [{"size": "1"}]}}}}}, {"name": "bert/encoder/layer_22/ffn_layer_2/output/strided_slice_2/stack_2", "op": "Const", "attr": {"value": {"tensor": {"dtype": "DT_INT32", "tensorShape": {"dim": [{"size": "1"}]}}}, "dtype": {"type": "DT_INT32"}}}, {"name": "bert/encoder/layer_22/ffn_layer_2/intermediate/dense/Reshape/shape/1", "op": "Const", "attr": {"value": {"tensor": {"dtype": "DT_INT32", "tensorShape": {}}}, "dtype": {"type": "DT_INT32"}}}, {"name": "bert/encoder/layer_22/ffn_layer_2/intermediate/dense/kernel", "op": "Const", "attr": {"value": {"tensor": {"dtype": "DT_FLOAT", "tensorShape": {"dim": [{"size": "128"}, {"size": "512"}]}}}, "dtype": {"type": "DT_FLOAT"}}}, {"name": "bert/encoder/layer_22/ffn_layer_2/intermediate/dense/bias", "op": "Const", "attr": {"value": {"tensor": {"dtype": "DT_FLOAT", "tensorShape": {"dim": [{"size": "512"}]}}}, "dtype": {"type": "DT_FLOAT"}}}, {"name": "bert/encoder/layer_22/ffn_layer_2/intermediate/strided_slice_2/stack", "op": "Const", "attr": {"value": {"tensor": {"dtype": "DT_INT32", "tensorShape": {"dim": [{"size": "1"}]}}}, "dtype": {"type": "DT_INT32"}}}, {"name": "bert/encoder/layer_22/ffn_layer_2/intermediate/strided_slice_2/stack_1", "op": "Const", "attr": {"value": {"tensor": {"dtype": "DT_INT32", "tensorShape": {"dim": [{"size": "1"}]}}}, "dtype": {"type": "DT_INT32"}}}, {"name": "bert/encoder/layer_22/ffn_layer_2/intermediate/strided_slice_2/stack_2", "op": "Const", "attr": {"value": {"tensor": {"dtype": "DT_INT32", "tensorShape": {"dim": [{"size": "1"}]}}}, "dtype": {"type": "DT_INT32"}}}, {"name": "bert/encoder/layer_22/ffn_layer_2/intermediate/strided_slice_3/stack", "op": "Const", "attr": {"value": {"tensor": {"dtype": "DT_INT32", "tensorShape": {"dim": [{"size": "1"}]}}}, "dtype": {"type": "DT_INT32"}}}, {"name": "bert/encoder/layer_22/ffn_layer_2/intermediate/strided_slice_3/stack_1", "op": "Const", "attr": {"dtype": {"type": "DT_INT32"}, "value": {"tensor": {"dtype": "DT_INT32", "tensorShape": {"dim": [{"size": "1"}]}}}}}, {"name": "bert/encoder/layer_22/ffn_layer_2/intermediate/strided_slice_3/stack_2", "op": "Const", "attr": {"value": {"tensor": {"dtype": "DT_INT32", "tensorShape": {"dim": [{"size": "1"}]}}}, "dtype": {"type": "DT_INT32"}}}, {"name": "bert/encoder/layer_22/ffn_layer_2/intermediate/dense/Reshape_1/shape/2", "op": "Const", "attr": {"dtype": {"type": "DT_INT32"}, "value": {"tensor": {"dtype": "DT_INT32", "tensorShape": {}}}}}, {"name": "bert/encoder/layer_22/ffn_layer_2/output/strided_slice_3/stack", "op": "Const", "attr": {"value": {"tensor": {"dtype": "DT_INT32", "tensorShape": {"dim": [{"size": "1"}]}}}, "dtype": {"type": "DT_INT32"}}}, {"name": "bert/encoder/layer_22/ffn_layer_2/output/strided_slice_3/stack_1", "op": "Const", "attr": {"value": {"tensor": {"dtype": "DT_INT32", "tensorShape": {"dim": [{"size": "1"}]}}}, "dtype": {"type": "DT_INT32"}}}, {"name": "bert/encoder/layer_22/ffn_layer_2/output/strided_slice_3/stack_2", "op": "Const", "attr": {"value": {"tensor": {"dtype": "DT_INT32", "tensorShape": {"dim": [{"size": "1"}]}}}, "dtype": {"type": "DT_INT32"}}}, {"name": "bert/encoder/layer_22/ffn_layer_2/output/dense/Reshape_1/shape/2", "op": "Const", "attr": {"dtype": {"type": "DT_INT32"}, "value": {"tensor": {"dtype": "DT_INT32", "tensorShape": {}}}}}, {"name": "bert/encoder/layer_22/ffn_layer_1/output/dense/kernel", "op": "Const", "attr": {"dtype": {"type": "DT_FLOAT"}, "value": {"tensor": {"dtype": "DT_FLOAT", "tensorShape": {"dim": [{"size": "512"}, {"size": "128"}]}}}}}, {"name": "bert/encoder/layer_22/ffn_layer_1/output/dense/bias", "op": "Const", "attr": {"dtype": {"type": "DT_FLOAT"}, "value": {"tensor": {"dtype": "DT_FLOAT", "tensorShape": {"dim": [{"size": "128"}]}}}}}, {"name": "bert/encoder/layer_22/ffn_layer_1/output/strided_slice_2/stack", "op": "Const", "attr": {"value": {"tensor": {"dtype": "DT_INT32", "tensorShape": {"dim": [{"size": "1"}]}}}, "dtype": {"type": "DT_INT32"}}}, {"name": "bert/encoder/layer_22/ffn_layer_1/output/strided_slice_2/stack_1", "op": "Const", "attr": {"value": {"tensor": {"dtype": "DT_INT32", "tensorShape": {"dim": [{"size": "1"}]}}}, "dtype": {"type": "DT_INT32"}}}, {"name": "bert/encoder/layer_22/ffn_layer_1/output/strided_slice_2/stack_2", "op": "Const", "attr": {"value": {"tensor": {"dtype": "DT_INT32", "tensorShape": {"dim": [{"size": "1"}]}}}, "dtype": {"type": "DT_INT32"}}}, {"name": "bert/encoder/layer_22/ffn_layer_1/intermediate/dense/Reshape/shape/1", "op": "Const", "attr": {"dtype": {"type": "DT_INT32"}, "value": {"tensor": {"dtype": "DT_INT32", "tensorShape": {}}}}}, {"name": "bert/encoder/layer_22/ffn_layer_1/intermediate/dense/kernel", "op": "Const", "attr": {"value": {"tensor": {"dtype": "DT_FLOAT", "tensorShape": {"dim": [{"size": "128"}, {"size": "512"}]}}}, "dtype": {"type": "DT_FLOAT"}}}, {"name": "bert/encoder/layer_22/ffn_layer_1/intermediate/dense/bias", "op": "Const", "attr": {"value": {"tensor": {"dtype": "DT_FLOAT", "tensorShape": {"dim": [{"size": "512"}]}}}, "dtype": {"type": "DT_FLOAT"}}}, {"name": "bert/encoder/layer_22/ffn_layer_1/intermediate/strided_slice_2/stack", "op": "Const", "attr": {"value": {"tensor": {"dtype": "DT_INT32", "tensorShape": {"dim": [{"size": "1"}]}}}, "dtype": {"type": "DT_INT32"}}}, {"name": "bert/encoder/layer_22/ffn_layer_1/intermediate/strided_slice_2/stack_1", "op": "Const", "attr": {"value": {"tensor": {"dtype": "DT_INT32", "tensorShape": {"dim": [{"size": "1"}]}}}, "dtype": {"type": "DT_INT32"}}}, {"name": "bert/encoder/layer_22/ffn_layer_1/intermediate/strided_slice_2/stack_2", "op": "Const", "attr": {"dtype": {"type": "DT_INT32"}, "value": {"tensor": {"dtype": "DT_INT32", "tensorShape": {"dim": [{"size": "1"}]}}}}}, {"name": "bert/encoder/layer_22/ffn_layer_1/intermediate/strided_slice_3/stack", "op": "Const", "attr": {"value": {"tensor": {"dtype": "DT_INT32", "tensorShape": {"dim": [{"size": "1"}]}}}, "dtype": {"type": "DT_INT32"}}}, {"name": "bert/encoder/layer_22/ffn_layer_1/intermediate/strided_slice_3/stack_1", "op": "Const", "attr": {"dtype": {"type": "DT_INT32"}, "value": {"tensor": {"dtype": "DT_INT32", "tensorShape": {"dim": [{"size": "1"}]}}}}}, {"name": "bert/encoder/layer_22/ffn_layer_1/intermediate/strided_slice_3/stack_2", "op": "Const", "attr": {"dtype": {"type": "DT_INT32"}, "value": {"tensor": {"dtype": "DT_INT32", "tensorShape": {"dim": [{"size": "1"}]}}}}}, {"name": "bert/encoder/layer_22/ffn_layer_1/intermediate/dense/Reshape_1/shape/2", "op": "Const", "attr": {"value": {"tensor": {"dtype": "DT_INT32", "tensorShape": {}}}, "dtype": {"type": "DT_INT32"}}}, {"name": "bert/encoder/layer_22/ffn_layer_1/output/strided_slice_3/stack", "op": "Const", "attr": {"value": {"tensor": {"dtype": "DT_INT32", "tensorShape": {"dim": [{"size": "1"}]}}}, "dtype": {"type": "DT_INT32"}}}, {"name": "bert/encoder/layer_22/ffn_layer_1/output/strided_slice_3/stack_1", "op": "Const", "attr": {"dtype": {"type": "DT_INT32"}, "value": {"tensor": {"dtype": "DT_INT32", "tensorShape": {"dim": [{"size": "1"}]}}}}}, {"name": "bert/encoder/layer_22/ffn_layer_1/output/strided_slice_3/stack_2", "op": "Const", "attr": {"dtype": {"type": "DT_INT32"}, "value": {"tensor": {"dtype": "DT_INT32", "tensorShape": {"dim": [{"size": "1"}]}}}}}, {"name": "bert/encoder/layer_22/ffn_layer_1/output/dense/Reshape_1/shape/2", "op": "Const", "attr": {"dtype": {"type": "DT_INT32"}, "value": {"tensor": {"dtype": "DT_INT32", "tensorShape": {}}}}}, {"name": "bert/encoder/layer_22/ffn_layer_0/output/dense/kernel", "op": "Const", "attr": {"dtype": {"type": "DT_FLOAT"}, "value": {"tensor": {"dtype": "DT_FLOAT", "tensorShape": {"dim": [{"size": "512"}, {"size": "128"}]}}}}}, {"name": "bert/encoder/layer_22/ffn_layer_0/output/dense/bias", "op": "Const", "attr": {"dtype": {"type": "DT_FLOAT"}, "value": {"tensor": {"dtype": "DT_FLOAT", "tensorShape": {"dim": [{"size": "128"}]}}}}}, {"name": "bert/encoder/layer_22/ffn_layer_0/output/strided_slice_2/stack", "op": "Const", "attr": {"dtype": {"type": "DT_INT32"}, "value": {"tensor": {"dtype": "DT_INT32", "tensorShape": {"dim": [{"size": "1"}]}}}}}, {"name": "bert/encoder/layer_22/ffn_layer_0/output/strided_slice_2/stack_1", "op": "Const", "attr": {"dtype": {"type": "DT_INT32"}, "value": {"tensor": {"dtype": "DT_INT32", "tensorShape": {"dim": [{"size": "1"}]}}}}}, {"name": "bert/encoder/layer_22/ffn_layer_0/output/strided_slice_2/stack_2", "op": "Const", "attr": {"dtype": {"type": "DT_INT32"}, "value": {"tensor": {"dtype": "DT_INT32", "tensorShape": {"dim": [{"size": "1"}]}}}}}, {"name": "bert/encoder/layer_22/ffn_layer_0/intermediate/dense/Reshape/shape/1", "op": "Const", "attr": {"dtype": {"type": "DT_INT32"}, "value": {"tensor": {"dtype": "DT_INT32", "tensorShape": {}}}}}, {"name": "bert/encoder/layer_22/ffn_layer_0/intermediate/dense/kernel", "op": "Const", "attr": {"dtype": {"type": "DT_FLOAT"}, "value": {"tensor": {"dtype": "DT_FLOAT", "tensorShape": {"dim": [{"size": "128"}, {"size": "512"}]}}}}}, {"name": "bert/encoder/layer_22/ffn_layer_0/intermediate/dense/bias", "op": "Const", "attr": {"dtype": {"type": "DT_FLOAT"}, "value": {"tensor": {"dtype": "DT_FLOAT", "tensorShape": {"dim": [{"size": "512"}]}}}}}, {"name": "bert/encoder/layer_22/ffn_layer_0/intermediate/strided_slice_2/stack", "op": "Const", "attr": {"value": {"tensor": {"dtype": "DT_INT32", "tensorShape": {"dim": [{"size": "1"}]}}}, "dtype": {"type": "DT_INT32"}}}, {"name": "bert/encoder/layer_22/ffn_layer_0/intermediate/strided_slice_2/stack_1", "op": "Const", "attr": {"value": {"tensor": {"dtype": "DT_INT32", "tensorShape": {"dim": [{"size": "1"}]}}}, "dtype": {"type": "DT_INT32"}}}, {"name": "bert/encoder/layer_22/ffn_layer_0/intermediate/strided_slice_2/stack_2", "op": "Const", "attr": {"value": {"tensor": {"dtype": "DT_INT32", "tensorShape": {"dim": [{"size": "1"}]}}}, "dtype": {"type": "DT_INT32"}}}, {"name": "bert/encoder/layer_22/ffn_layer_0/intermediate/strided_slice_3/stack", "op": "Const", "attr": {"dtype": {"type": "DT_INT32"}, "value": {"tensor": {"dtype": "DT_INT32", "tensorShape": {"dim": [{"size": "1"}]}}}}}, {"name": "bert/encoder/layer_22/ffn_layer_0/intermediate/strided_slice_3/stack_1", "op": "Const", "attr": {"dtype": {"type": "DT_INT32"}, "value": {"tensor": {"dtype": "DT_INT32", "tensorShape": {"dim": [{"size": "1"}]}}}}}, {"name": "bert/encoder/layer_22/ffn_layer_0/intermediate/strided_slice_3/stack_2", "op": "Const", "attr": {"dtype": {"type": "DT_INT32"}, "value": {"tensor": {"dtype": "DT_INT32", "tensorShape": {"dim": [{"size": "1"}]}}}}}, {"name": "bert/encoder/layer_22/ffn_layer_0/intermediate/dense/Reshape_1/shape/2", "op": "Const", "attr": {"value": {"tensor": {"dtype": "DT_INT32", "tensorShape": {}}}, "dtype": {"type": "DT_INT32"}}}, {"name": "bert/encoder/layer_22/ffn_layer_0/output/strided_slice_3/stack", "op": "Const", "attr": {"dtype": {"type": "DT_INT32"}, "value": {"tensor": {"dtype": "DT_INT32", "tensorShape": {"dim": [{"size": "1"}]}}}}}, {"name": "bert/encoder/layer_22/ffn_layer_0/output/strided_slice_3/stack_1", "op": "Const", "attr": {"dtype": {"type": "DT_INT32"}, "value": {"tensor": {"dtype": "DT_INT32", "tensorShape": {"dim": [{"size": "1"}]}}}}}, {"name": "bert/encoder/layer_22/ffn_layer_0/output/strided_slice_3/stack_2", "op": "Const", "attr": {"dtype": {"type": "DT_INT32"}, "value": {"tensor": {"dtype": "DT_INT32", "tensorShape": {"dim": [{"size": "1"}]}}}}}, {"name": "bert/encoder/layer_22/ffn_layer_0/output/dense/Reshape_1/shape/2", "op": "Const", "attr": {"value": {"tensor": {"dtype": "DT_INT32", "tensorShape": {}}}, "dtype": {"type": "DT_INT32"}}}, {"name": "bert/encoder/layer_22/attention/output/dense/Reshape/shape/1", "op": "Const", "attr": {"dtype": {"type": "DT_INT32"}, "value": {"tensor": {"dtype": "DT_INT32", "tensorShape": {}}}}}, {"name": "bert/encoder/layer_22/attention/output/dense/kernel", "op": "Const", "attr": {"value": {"tensor": {"dtype": "DT_FLOAT", "tensorShape": {"dim": [{"size": "128"}, {"size": "128"}]}}}, "dtype": {"type": "DT_FLOAT"}}}, {"name": "bert/encoder/layer_22/attention/output/dense/bias", "op": "Const", "attr": {"value": {"tensor": {"dtype": "DT_FLOAT", "tensorShape": {"dim": [{"size": "128"}]}}}, "dtype": {"type": "DT_FLOAT"}}}, {"name": "bert/encoder/layer_22/attention/output/strided_slice/stack", "op": "Const", "attr": {"dtype": {"type": "DT_INT32"}, "value": {"tensor": {"dtype": "DT_INT32", "tensorShape": {"dim": [{"size": "1"}]}}}}}, {"name": "bert/encoder/layer_22/attention/output/strided_slice/stack_1", "op": "Const", "attr": {"dtype": {"type": "DT_INT32"}, "value": {"tensor": {"dtype": "DT_INT32", "tensorShape": {"dim": [{"size": "1"}]}}}}}, {"name": "bert/encoder/layer_22/attention/output/strided_slice/stack_2", "op": "Const", "attr": {"dtype": {"type": "DT_INT32"}, "value": {"tensor": {"dtype": "DT_INT32", "tensorShape": {"dim": [{"size": "1"}]}}}}}, {"name": "bert/encoder/layer_22/attention/self/dropout/Const", "op": "Const", "attr": {"value": {"tensor": {"dtype": "DT_FLOAT", "tensorShape": {}}}, "dtype": {"type": "DT_FLOAT"}}}, {"name": "bert/encoder/layer_22/attention/self/query/Reshape/shape/1", "op": "Const", "attr": {"dtype": {"type": "DT_INT32"}, "value": {"tensor": {"dtype": "DT_INT32", "tensorShape": {}}}}}, {"name": "bert/encoder/layer_22/attention/self/query/kernel", "op": "Const", "attr": {"value": {"tensor": {"dtype": "DT_FLOAT", "tensorShape": {"dim": [{"size": "128"}, {"size": "128"}]}}}, "dtype": {"type": "DT_FLOAT"}}}, {"name": "bert/encoder/layer_22/attention/self/query/bias", "op": "Const", "attr": {"dtype": {"type": "DT_FLOAT"}, "value": {"tensor": {"dtype": "DT_FLOAT", "tensorShape": {"dim": [{"size": "128"}]}}}}}, {"name": "bert/encoder/layer_22/attention/self/strided_slice_4/stack", "op": "Const", "attr": {"dtype": {"type": "DT_INT32"}, "value": {"tensor": {"dtype": "DT_INT32", "tensorShape": {"dim": [{"size": "1"}]}}}}}, {"name": "bert/encoder/layer_22/attention/self/strided_slice_4/stack_1", "op": "Const", "attr": {"value": {"tensor": {"dtype": "DT_INT32", "tensorShape": {"dim": [{"size": "1"}]}}}, "dtype": {"type": "DT_INT32"}}}, {"name": "bert/encoder/layer_22/attention/self/strided_slice_4/stack_2", "op": "Const", "attr": {"dtype": {"type": "DT_INT32"}, "value": {"tensor": {"dtype": "DT_INT32", "tensorShape": {"dim": [{"size": "1"}]}}}}}, {"name": "bert/encoder/layer_22/attention/self/strided_slice_5/stack", "op": "Const", "attr": {"dtype": {"type": "DT_INT32"}, "value": {"tensor": {"dtype": "DT_INT32", "tensorShape": {"dim": [{"size": "1"}]}}}}}, {"name": "bert/encoder/layer_22/attention/self/strided_slice_5/stack_1", "op": "Const", "attr": {"dtype": {"type": "DT_INT32"}, "value": {"tensor": {"dtype": "DT_INT32", "tensorShape": {"dim": [{"size": "1"}]}}}}}, {"name": "bert/encoder/layer_22/attention/self/strided_slice_5/stack_2", "op": "Const", "attr": {"value": {"tensor": {"dtype": "DT_INT32", "tensorShape": {"dim": [{"size": "1"}]}}}, "dtype": {"type": "DT_INT32"}}}, {"name": "bert/encoder/layer_22/attention/self/query/Reshape_1/shape/2", "op": "Const", "attr": {"dtype": {"type": "DT_INT32"}, "value": {"tensor": {"dtype": "DT_INT32", "tensorShape": {}}}}}, {"name": "bert/encoder/layer_22/attention/self/query/Reshape_1/shape/3", "op": "Const", "attr": {"dtype": {"type": "DT_INT32"}, "value": {"tensor": {"dtype": "DT_INT32", "tensorShape": {}}}}}, {"name": "bert/encoder/layer_22/attention/self/transpose/perm", "op": "Const", "attr": {"dtype": {"type": "DT_INT32"}, "value": {"tensor": {"dtype": "DT_INT32", "tensorShape": {"dim": [{"size": "4"}]}}}}}, {"name": "bert/encoder/layer_22/attention/self/key/Reshape/shape/1", "op": "Const", "attr": {"dtype": {"type": "DT_INT32"}, "value": {"tensor": {"dtype": "DT_INT32", "tensorShape": {}}}}}, {"name": "bert/encoder/layer_22/attention/self/key/kernel", "op": "Const", "attr": {"dtype": {"type": "DT_FLOAT"}, "value": {"tensor": {"dtype": "DT_FLOAT", "tensorShape": {"dim": [{"size": "128"}, {"size": "128"}]}}}}}, {"name": "bert/encoder/layer_22/attention/self/key/bias", "op": "Const", "attr": {"dtype": {"type": "DT_FLOAT"}, "value": {"tensor": {"dtype": "DT_FLOAT", "tensorShape": {"dim": [{"size": "128"}]}}}}}, {"name": "bert/encoder/layer_22/attention/self/strided_slice_6/stack", "op": "Const", "attr": {"value": {"tensor": {"dtype": "DT_INT32", "tensorShape": {"dim": [{"size": "1"}]}}}, "dtype": {"type": "DT_INT32"}}}, {"name": "bert/encoder/layer_22/attention/self/strided_slice_6/stack_1", "op": "Const", "attr": {"dtype": {"type": "DT_INT32"}, "value": {"tensor": {"dtype": "DT_INT32", "tensorShape": {"dim": [{"size": "1"}]}}}}}, {"name": "bert/encoder/layer_22/attention/self/strided_slice_6/stack_2", "op": "Const", "attr": {"dtype": {"type": "DT_INT32"}, "value": {"tensor": {"dtype": "DT_INT32", "tensorShape": {"dim": [{"size": "1"}]}}}}}, {"name": "bert/encoder/layer_22/bottleneck/attention/dense/Tensordot/Const", "op": "Const", "attr": {"value": {"tensor": {"dtype": "DT_INT32", "tensorShape": {"dim": [{"size": "1"}]}}}, "dtype": {"type": "DT_INT32"}}}, {"name": "bert/encoder/layer_22/bottleneck/attention/dense/Tensordot/axes", "op": "Const", "attr": {"dtype": {"type": "DT_INT32"}, "value": {"tensor": {"dtype": "DT_INT32", "tensorShape": {"dim": [{"size": "1"}]}}}}}, {"name": "bert/encoder/layer_22/bottleneck/attention/dense/Tensordot/GatherV2_1/axis", "op": "Const", "attr": {"value": {"tensor": {"dtype": "DT_INT32", "tensorShape": {}}}, "dtype": {"type": "DT_INT32"}}}, {"name": "bert/encoder/layer_22/bottleneck/attention/dense/Tensordot/Const_1", "op": "Const", "attr": {"value": {"tensor": {"dtype": "DT_INT32", "tensorShape": {"dim": [{"size": "1"}]}}}, "dtype": {"type": "DT_INT32"}}}, {"name": "bert/encoder/layer_22/bottleneck/attention/dense/kernel", "op": "Const", "attr": {"value": {"tensor": {"dtype": "DT_FLOAT", "tensorShape": {"dim": [{"size": "512"}, {"size": "128"}]}}}, "dtype": {"type": "DT_FLOAT"}}}, {"name": "bert/encoder/layer_22/bottleneck/attention/dense/Tensordot/free", "op": "Const", "attr": {"dtype": {"type": "DT_INT32"}, "value": {"tensor": {"dtype": "DT_INT32", "tensorShape": {"dim": [{"size": "2"}]}}}}}, {"name": "bert/encoder/layer_22/bottleneck/attention/dense/Tensordot/GatherV2/axis", "op": "Const", "attr": {"value": {"tensor": {"dtype": "DT_INT32", "tensorShape": {}}}, "dtype": {"type": "DT_INT32"}}}, {"name": "bert/encoder/layer_22/bottleneck/attention/dense/Tensordot/Const_2", "op": "Const", "attr": {"value": {"tensor": {"dtype": "DT_INT32", "tensorShape": {"dim": [{"size": "1"}]}}}, "dtype": {"type": "DT_INT32"}}}, {"name": "bert/encoder/layer_22/bottleneck/attention/dense/Tensordot/concat_1/axis", "op": "Const", "attr": {"value": {"tensor": {"dtype": "DT_INT32", "tensorShape": {}}}, "dtype": {"type": "DT_INT32"}}}, {"name": "bert/encoder/layer_22/bottleneck/attention/dense/bias", "op": "Const", "attr": {"value": {"tensor": {"dtype": "DT_FLOAT", "tensorShape": {"dim": [{"size": "128"}]}}}, "dtype": {"type": "DT_FLOAT"}}}, {"name": "bert/encoder/layer_22/bottleneck/attention/FakeLayerNorm/gamma", "op": "Const", "attr": {"value": {"tensor": {"dtype": "DT_FLOAT", "tensorShape": {"dim": [{"size": "128"}]}}}, "dtype": {"type": "DT_FLOAT"}}}, {"name": "bert/encoder/layer_22/bottleneck/attention/FakeLayerNorm/beta", "op": "Const", "attr": {"value": {"tensor": {"dtype": "DT_FLOAT", "tensorShape": {"dim": [{"size": "128"}]}}}, "dtype": {"type": "DT_FLOAT"}}}, {"name": "bert/encoder/layer_22/attention/self/strided_slice_7/stack", "op": "Const", "attr": {"dtype": {"type": "DT_INT32"}, "value": {"tensor": {"dtype": "DT_INT32", "tensorShape": {"dim": [{"size": "1"}]}}}}}, {"name": "bert/encoder/layer_22/attention/self/strided_slice_7/stack_1", "op": "Const", "attr": {"dtype": {"type": "DT_INT32"}, "value": {"tensor": {"dtype": "DT_INT32", "tensorShape": {"dim": [{"size": "1"}]}}}}}, {"name": "bert/encoder/layer_22/attention/self/strided_slice_7/stack_2", "op": "Const", "attr": {"value": {"tensor": {"dtype": "DT_INT32", "tensorShape": {"dim": [{"size": "1"}]}}}, "dtype": {"type": "DT_INT32"}}}, {"name": "bert/encoder/layer_22/attention/self/key/Reshape_1/shape/2", "op": "Const", "attr": {"dtype": {"type": "DT_INT32"}, "value": {"tensor": {"dtype": "DT_INT32", "tensorShape": {}}}}}, {"name": "bert/encoder/layer_22/attention/self/key/Reshape_1/shape/3", "op": "Const", "attr": {"dtype": {"type": "DT_INT32"}, "value": {"tensor": {"dtype": "DT_INT32", "tensorShape": {}}}}}, {"name": "bert/encoder/layer_22/attention/self/transpose_1/perm", "op": "Const", "attr": {"value": {"tensor": {"dtype": "DT_INT32", "tensorShape": {"dim": [{"size": "4"}]}}}, "dtype": {"type": "DT_INT32"}}}, {"name": "bert/encoder/layer_22/attention/self/Mul/y", "op": "Const", "attr": {"value": {"tensor": {"dtype": "DT_FLOAT", "tensorShape": {}}}, "dtype": {"type": "DT_FLOAT"}}}, {"name": "bert/encoder/layer_22/attention/self/Add/x", "op": "Const", "attr": {"value": {"tensor": {"dtype": "DT_FLOAT", "tensorShape": {}}}, "dtype": {"type": "DT_FLOAT"}}}, {"name": "bert/encoder/layer_22/attention/self/ExpandDims/dim", "op": "Const", "attr": {"value": {"tensor": {"dtype": "DT_INT32", "tensorShape": {"dim": [{"size": "1"}]}}}, "dtype": {"type": "DT_INT32"}}}, {"name": "bert/encoder/layer_22/attention/self/mul_1/y", "op": "Const", "attr": {"value": {"tensor": {"dtype": "DT_FLOAT", "tensorShape": {}}}, "dtype": {"type": "DT_FLOAT"}}}, {"name": "bert/encoder/layer_22/attention/self/dropout/GreaterEqual/y", "op": "Const", "attr": {"value": {"tensor": {"dtype": "DT_FLOAT", "tensorShape": {}}}, "dtype": {"type": "DT_FLOAT"}}}, {"name": "bert/encoder/layer_22/attention/self/value/Reshape/shape/1", "op": "Const", "attr": {"dtype": {"type": "DT_INT32"}, "value": {"tensor": {"dtype": "DT_INT32", "tensorShape": {}}}}}, {"name": "bert/encoder/layer_22/attention/self/value/kernel", "op": "Const", "attr": {"value": {"tensor": {"dtype": "DT_FLOAT", "tensorShape": {"dim": [{"size": "512"}, {"size": "128"}]}}}, "dtype": {"type": "DT_FLOAT"}}}, {"name": "bert/encoder/layer_22/attention/self/value/bias", "op": "Const", "attr": {"value": {"tensor": {"dtype": "DT_FLOAT", "tensorShape": {"dim": [{"size": "128"}]}}}, "dtype": {"type": "DT_FLOAT"}}}, {"name": "bert/encoder/layer_22/attention/self/strided_slice_8/stack", "op": "Const", "attr": {"value": {"tensor": {"dtype": "DT_INT32", "tensorShape": {"dim": [{"size": "1"}]}}}, "dtype": {"type": "DT_INT32"}}}, {"name": "bert/encoder/layer_22/attention/self/strided_slice_8/stack_1", "op": "Const", "attr": {"value": {"tensor": {"dtype": "DT_INT32", "tensorShape": {"dim": [{"size": "1"}]}}}, "dtype": {"type": "DT_INT32"}}}, {"name": "bert/encoder/layer_22/attention/self/strided_slice_8/stack_2", "op": "Const", "attr": {"value": {"tensor": {"dtype": "DT_INT32", "tensorShape": {"dim": [{"size": "1"}]}}}, "dtype": {"type": "DT_INT32"}}}, {"name": "bert/encoder/layer_22/attention/self/strided_slice_9/stack", "op": "Const", "attr": {"dtype": {"type": "DT_INT32"}, "value": {"tensor": {"dtype": "DT_INT32", "tensorShape": {"dim": [{"size": "1"}]}}}}}, {"name": "bert/encoder/layer_22/attention/self/strided_slice_9/stack_1", "op": "Const", "attr": {"value": {"tensor": {"dtype": "DT_INT32", "tensorShape": {"dim": [{"size": "1"}]}}}, "dtype": {"type": "DT_INT32"}}}, {"name": "bert/encoder/layer_22/attention/self/strided_slice_9/stack_2", "op": "Const", "attr": {"dtype": {"type": "DT_INT32"}, "value": {"tensor": {"dtype": "DT_INT32", "tensorShape": {"dim": [{"size": "1"}]}}}}}, {"name": "bert/encoder/layer_22/attention/self/value/Reshape_1/shape/2", "op": "Const", "attr": {"value": {"tensor": {"dtype": "DT_INT32", "tensorShape": {}}}, "dtype": {"type": "DT_INT32"}}}, {"name": "bert/encoder/layer_22/attention/self/value/Reshape_1/shape/3", "op": "Const", "attr": {"value": {"tensor": {"dtype": "DT_INT32", "tensorShape": {}}}, "dtype": {"type": "DT_INT32"}}}, {"name": "bert/encoder/layer_22/attention/self/transpose_2/perm", "op": "Const", "attr": {"value": {"tensor": {"dtype": "DT_INT32", "tensorShape": {"dim": [{"size": "4"}]}}}, "dtype": {"type": "DT_INT32"}}}, {"name": "bert/encoder/layer_22/attention/self/transpose_3/perm", "op": "Const", "attr": {"value": {"tensor": {"dtype": "DT_INT32", "tensorShape": {"dim": [{"size": "4"}]}}}, "dtype": {"type": "DT_INT32"}}}, {"name": "bert/encoder/layer_22/attention/output/strided_slice_3/stack", "op": "Const", "attr": {"dtype": {"type": "DT_INT32"}, "value": {"tensor": {"dtype": "DT_INT32", "tensorShape": {"dim": [{"size": "1"}]}}}}}, {"name": "bert/encoder/layer_22/attention/output/strided_slice_3/stack_1", "op": "Const", "attr": {"dtype": {"type": "DT_INT32"}, "value": {"tensor": {"dtype": "DT_INT32", "tensorShape": {"dim": [{"size": "1"}]}}}}}, {"name": "bert/encoder/layer_22/attention/output/strided_slice_3/stack_2", "op": "Const", "attr": {"value": {"tensor": {"dtype": "DT_INT32", "tensorShape": {"dim": [{"size": "1"}]}}}, "dtype": {"type": "DT_INT32"}}}, {"name": "bert/encoder/layer_22/attention/output/dense/Reshape_1/shape/2", "op": "Const", "attr": {"value": {"tensor": {"dtype": "DT_INT32", "tensorShape": {}}}, "dtype": {"type": "DT_INT32"}}}, {"name": "bert/encoder/layer_22/bottleneck/input/dense/Reshape/shape/1", "op": "Const", "attr": {"value": {"tensor": {"dtype": "DT_INT32", "tensorShape": {}}}, "dtype": {"type": "DT_INT32"}}}, {"name": "bert/encoder/layer_22/bottleneck/input/dense/kernel", "op": "Const", "attr": {"value": {"tensor": {"dtype": "DT_FLOAT", "tensorShape": {"dim": [{"size": "512"}, {"size": "128"}]}}}, "dtype": {"type": "DT_FLOAT"}}}, {"name": "bert/encoder/layer_22/bottleneck/input/dense/bias", "op": "Const", "attr": {"value": {"tensor": {"dtype": "DT_FLOAT", "tensorShape": {"dim": [{"size": "128"}]}}}, "dtype": {"type": "DT_FLOAT"}}}, {"name": "bert/encoder/layer_22/bottleneck/input/strided_slice_2/stack", "op": "Const", "attr": {"value": {"tensor": {"dtype": "DT_INT32", "tensorShape": {"dim": [{"size": "1"}]}}}, "dtype": {"type": "DT_INT32"}}}, {"name": "bert/encoder/layer_22/bottleneck/input/strided_slice_2/stack_1", "op": "Const", "attr": {"value": {"tensor": {"dtype": "DT_INT32", "tensorShape": {"dim": [{"size": "1"}]}}}, "dtype": {"type": "DT_INT32"}}}, {"name": "bert/encoder/layer_22/bottleneck/input/strided_slice_2/stack_2", "op": "Const", "attr": {"dtype": {"type": "DT_INT32"}, "value": {"tensor": {"dtype": "DT_INT32", "tensorShape": {"dim": [{"size": "1"}]}}}}}, {"name": "bert/encoder/layer_22/bottleneck/input/strided_slice_3/stack", "op": "Const", "attr": {"value": {"tensor": {"dtype": "DT_INT32", "tensorShape": {"dim": [{"size": "1"}]}}}, "dtype": {"type": "DT_INT32"}}}, {"name": "bert/encoder/layer_22/bottleneck/input/strided_slice_3/stack_1", "op": "Const", "attr": {"value": {"tensor": {"dtype": "DT_INT32", "tensorShape": {"dim": [{"size": "1"}]}}}, "dtype": {"type": "DT_INT32"}}}, {"name": "bert/encoder/layer_22/bottleneck/input/strided_slice_3/stack_2", "op": "Const", "attr": {"dtype": {"type": "DT_INT32"}, "value": {"tensor": {"dtype": "DT_INT32", "tensorShape": {"dim": [{"size": "1"}]}}}}}, {"name": "bert/encoder/layer_22/bottleneck/input/dense/Reshape_1/shape/2", "op": "Const", "attr": {"value": {"tensor": {"dtype": "DT_INT32", "tensorShape": {}}}, "dtype": {"type": "DT_INT32"}}}, {"name": "bert/encoder/layer_22/bottleneck/input/FakeLayerNorm/gamma", "op": "Const", "attr": {"value": {"tensor": {"dtype": "DT_FLOAT", "tensorShape": {"dim": [{"size": "128"}]}}}, "dtype": {"type": "DT_FLOAT"}}}, {"name": "bert/encoder/layer_22/bottleneck/input/FakeLayerNorm/beta", "op": "Const", "attr": {"value": {"tensor": {"dtype": "DT_FLOAT", "tensorShape": {"dim": [{"size": "128"}]}}}, "dtype": {"type": "DT_FLOAT"}}}, {"name": "bert/encoder/layer_22/attention/output/FakeLayerNorm/gamma", "op": "Const", "attr": {"value": {"tensor": {"dtype": "DT_FLOAT", "tensorShape": {"dim": [{"size": "128"}]}}}, "dtype": {"type": "DT_FLOAT"}}}, {"name": "bert/encoder/layer_22/attention/output/FakeLayerNorm/beta", "op": "Const", "attr": {"dtype": {"type": "DT_FLOAT"}, "value": {"tensor": {"dtype": "DT_FLOAT", "tensorShape": {"dim": [{"size": "128"}]}}}}}, {"name": "bert/encoder/layer_22/ffn_layer_0/output/FakeLayerNorm/gamma", "op": "Const", "attr": {"value": {"tensor": {"dtype": "DT_FLOAT", "tensorShape": {"dim": [{"size": "128"}]}}}, "dtype": {"type": "DT_FLOAT"}}}, {"name": "bert/encoder/layer_22/ffn_layer_0/output/FakeLayerNorm/beta", "op": "Const", "attr": {"dtype": {"type": "DT_FLOAT"}, "value": {"tensor": {"dtype": "DT_FLOAT", "tensorShape": {"dim": [{"size": "128"}]}}}}}, {"name": "bert/encoder/layer_22/ffn_layer_1/output/FakeLayerNorm/gamma", "op": "Const", "attr": {"dtype": {"type": "DT_FLOAT"}, "value": {"tensor": {"dtype": "DT_FLOAT", "tensorShape": {"dim": [{"size": "128"}]}}}}}, {"name": "bert/encoder/layer_22/ffn_layer_1/output/FakeLayerNorm/beta", "op": "Const", "attr": {"dtype": {"type": "DT_FLOAT"}, "value": {"tensor": {"dtype": "DT_FLOAT", "tensorShape": {"dim": [{"size": "128"}]}}}}}, {"name": "bert/encoder/layer_22/ffn_layer_2/output/FakeLayerNorm/gamma", "op": "Const", "attr": {"value": {"tensor": {"dtype": "DT_FLOAT", "tensorShape": {"dim": [{"size": "128"}]}}}, "dtype": {"type": "DT_FLOAT"}}}, {"name": "bert/encoder/layer_22/ffn_layer_2/output/FakeLayerNorm/beta", "op": "Const", "attr": {"value": {"tensor": {"dtype": "DT_FLOAT", "tensorShape": {"dim": [{"size": "128"}]}}}, "dtype": {"type": "DT_FLOAT"}}}, {"name": "bert/encoder/layer_22/output/FakeLayerNorm/gamma", "op": "Const", "attr": {"value": {"tensor": {"dtype": "DT_FLOAT", "tensorShape": {"dim": [{"size": "128"}]}}}, "dtype": {"type": "DT_FLOAT"}}}, {"name": "bert/encoder/layer_22/output/FakeLayerNorm/beta", "op": "Const", "attr": {"value": {"tensor": {"dtype": "DT_FLOAT", "tensorShape": {"dim": [{"size": "128"}]}}}, "dtype": {"type": "DT_FLOAT"}}}, {"name": "bert/encoder/layer_22/output/bottleneck/strided_slice_3/stack", "op": "Const", "attr": {"value": {"tensor": {"dtype": "DT_INT32", "tensorShape": {"dim": [{"size": "1"}]}}}, "dtype": {"type": "DT_INT32"}}}, {"name": "bert/encoder/layer_22/output/bottleneck/strided_slice_3/stack_1", "op": "Const", "attr": {"value": {"tensor": {"dtype": "DT_INT32", "tensorShape": {"dim": [{"size": "1"}]}}}, "dtype": {"type": "DT_INT32"}}}, {"name": "bert/encoder/layer_22/output/bottleneck/strided_slice_3/stack_2", "op": "Const", "attr": {"value": {"tensor": {"dtype": "DT_INT32", "tensorShape": {"dim": [{"size": "1"}]}}}, "dtype": {"type": "DT_INT32"}}}, {"name": "bert/encoder/layer_22/output/bottleneck/dense/Reshape_1/shape/2", "op": "Const", "attr": {"dtype": {"type": "DT_INT32"}, "value": {"tensor": {"dtype": "DT_INT32", "tensorShape": {}}}}}, {"name": "bert/encoder/layer_21/output/bottleneck/dense/Reshape/shape/1", "op": "Const", "attr": {"value": {"tensor": {"dtype": "DT_INT32", "tensorShape": {}}}, "dtype": {"type": "DT_INT32"}}}, {"name": "bert/encoder/layer_21/output/bottleneck/dense/kernel", "op": "Const", "attr": {"value": {"tensor": {"dtype": "DT_FLOAT", "tensorShape": {"dim": [{"size": "128"}, {"size": "512"}]}}}, "dtype": {"type": "DT_FLOAT"}}}, {"name": "bert/encoder/layer_21/output/bottleneck/dense/bias", "op": "Const", "attr": {"dtype": {"type": "DT_FLOAT"}, "value": {"tensor": {"dtype": "DT_FLOAT", "tensorShape": {"dim": [{"size": "512"}]}}}}}, {"name": "bert/encoder/layer_21/output/bottleneck/strided_slice_2/stack", "op": "Const", "attr": {"dtype": {"type": "DT_INT32"}, "value": {"tensor": {"dtype": "DT_INT32", "tensorShape": {"dim": [{"size": "1"}]}}}}}, {"name": "bert/encoder/layer_21/output/bottleneck/strided_slice_2/stack_1", "op": "Const", "attr": {"dtype": {"type": "DT_INT32"}, "value": {"tensor": {"dtype": "DT_INT32", "tensorShape": {"dim": [{"size": "1"}]}}}}}, {"name": "bert/encoder/layer_21/output/bottleneck/strided_slice_2/stack_2", "op": "Const", "attr": {"value": {"tensor": {"dtype": "DT_INT32", "tensorShape": {"dim": [{"size": "1"}]}}}, "dtype": {"type": "DT_INT32"}}}, {"name": "bert/encoder/layer_21/output/dense/kernel", "op": "Const", "attr": {"value": {"tensor": {"dtype": "DT_FLOAT", "tensorShape": {"dim": [{"size": "512"}, {"size": "128"}]}}}, "dtype": {"type": "DT_FLOAT"}}}, {"name": "bert/encoder/layer_21/output/dense/bias", "op": "Const", "attr": {"dtype": {"type": "DT_FLOAT"}, "value": {"tensor": {"dtype": "DT_FLOAT", "tensorShape": {"dim": [{"size": "128"}]}}}}}, {"name": "bert/encoder/layer_21/output/strided_slice_2/stack", "op": "Const", "attr": {"dtype": {"type": "DT_INT32"}, "value": {"tensor": {"dtype": "DT_INT32", "tensorShape": {"dim": [{"size": "1"}]}}}}}, {"name": "bert/encoder/layer_21/output/strided_slice_2/stack_1", "op": "Const", "attr": {"value": {"tensor": {"dtype": "DT_INT32", "tensorShape": {"dim": [{"size": "1"}]}}}, "dtype": {"type": "DT_INT32"}}}, {"name": "bert/encoder/layer_21/output/strided_slice_2/stack_2", "op": "Const", "attr": {"value": {"tensor": {"dtype": "DT_INT32", "tensorShape": {"dim": [{"size": "1"}]}}}, "dtype": {"type": "DT_INT32"}}}, {"name": "bert/encoder/layer_21/intermediate/dense/Reshape/shape/1", "op": "Const", "attr": {"dtype": {"type": "DT_INT32"}, "value": {"tensor": {"dtype": "DT_INT32", "tensorShape": {}}}}}, {"name": "bert/encoder/layer_21/intermediate/dense/kernel", "op": "Const", "attr": {"value": {"tensor": {"dtype": "DT_FLOAT", "tensorShape": {"dim": [{"size": "128"}, {"size": "512"}]}}}, "dtype": {"type": "DT_FLOAT"}}}, {"name": "bert/encoder/layer_21/intermediate/dense/bias", "op": "Const", "attr": {"value": {"tensor": {"dtype": "DT_FLOAT", "tensorShape": {"dim": [{"size": "512"}]}}}, "dtype": {"type": "DT_FLOAT"}}}, {"name": "bert/encoder/layer_21/intermediate/strided_slice_2/stack", "op": "Const", "attr": {"dtype": {"type": "DT_INT32"}, "value": {"tensor": {"dtype": "DT_INT32", "tensorShape": {"dim": [{"size": "1"}]}}}}}, {"name": "bert/encoder/layer_21/intermediate/strided_slice_2/stack_1", "op": "Const", "attr": {"value": {"tensor": {"dtype": "DT_INT32", "tensorShape": {"dim": [{"size": "1"}]}}}, "dtype": {"type": "DT_INT32"}}}, {"name": "bert/encoder/layer_21/intermediate/strided_slice_2/stack_2", "op": "Const", "attr": {"value": {"tensor": {"dtype": "DT_INT32", "tensorShape": {"dim": [{"size": "1"}]}}}, "dtype": {"type": "DT_INT32"}}}, {"name": "bert/encoder/layer_21/intermediate/strided_slice_3/stack", "op": "Const", "attr": {"dtype": {"type": "DT_INT32"}, "value": {"tensor": {"dtype": "DT_INT32", "tensorShape": {"dim": [{"size": "1"}]}}}}}, {"name": "bert/encoder/layer_21/intermediate/strided_slice_3/stack_1", "op": "Const", "attr": {"value": {"tensor": {"dtype": "DT_INT32", "tensorShape": {"dim": [{"size": "1"}]}}}, "dtype": {"type": "DT_INT32"}}}, {"name": "bert/encoder/layer_21/intermediate/strided_slice_3/stack_2", "op": "Const", "attr": {"value": {"tensor": {"dtype": "DT_INT32", "tensorShape": {"dim": [{"size": "1"}]}}}, "dtype": {"type": "DT_INT32"}}}, {"name": "bert/encoder/layer_21/intermediate/dense/Reshape_1/shape/2", "op": "Const", "attr": {"value": {"tensor": {"dtype": "DT_INT32", "tensorShape": {}}}, "dtype": {"type": "DT_INT32"}}}, {"name": "bert/encoder/layer_21/output/strided_slice_3/stack", "op": "Const", "attr": {"dtype": {"type": "DT_INT32"}, "value": {"tensor": {"dtype": "DT_INT32", "tensorShape": {"dim": [{"size": "1"}]}}}}}, {"name": "bert/encoder/layer_21/output/strided_slice_3/stack_1", "op": "Const", "attr": {"dtype": {"type": "DT_INT32"}, "value": {"tensor": {"dtype": "DT_INT32", "tensorShape": {"dim": [{"size": "1"}]}}}}}, {"name": "bert/encoder/layer_21/output/strided_slice_3/stack_2", "op": "Const", "attr": {"value": {"tensor": {"dtype": "DT_INT32", "tensorShape": {"dim": [{"size": "1"}]}}}, "dtype": {"type": "DT_INT32"}}}, {"name": "bert/encoder/layer_21/output/dense/Reshape_1/shape/2", "op": "Const", "attr": {"value": {"tensor": {"dtype": "DT_INT32", "tensorShape": {}}}, "dtype": {"type": "DT_INT32"}}}, {"name": "bert/encoder/layer_21/ffn_layer_2/output/dense/kernel", "op": "Const", "attr": {"value": {"tensor": {"dtype": "DT_FLOAT", "tensorShape": {"dim": [{"size": "512"}, {"size": "128"}]}}}, "dtype": {"type": "DT_FLOAT"}}}, {"name": "bert/encoder/layer_21/ffn_layer_2/output/dense/bias", "op": "Const", "attr": {"value": {"tensor": {"dtype": "DT_FLOAT", "tensorShape": {"dim": [{"size": "128"}]}}}, "dtype": {"type": "DT_FLOAT"}}}, {"name": "bert/encoder/layer_21/ffn_layer_2/output/strided_slice_2/stack", "op": "Const", "attr": {"dtype": {"type": "DT_INT32"}, "value": {"tensor": {"dtype": "DT_INT32", "tensorShape": {"dim": [{"size": "1"}]}}}}}, {"name": "bert/encoder/layer_21/ffn_layer_2/output/strided_slice_2/stack_1", "op": "Const", "attr": {"value": {"tensor": {"dtype": "DT_INT32", "tensorShape": {"dim": [{"size": "1"}]}}}, "dtype": {"type": "DT_INT32"}}}, {"name": "bert/encoder/layer_21/ffn_layer_2/output/strided_slice_2/stack_2", "op": "Const", "attr": {"dtype": {"type": "DT_INT32"}, "value": {"tensor": {"dtype": "DT_INT32", "tensorShape": {"dim": [{"size": "1"}]}}}}}, {"name": "bert/encoder/layer_21/ffn_layer_2/intermediate/dense/Reshape/shape/1", "op": "Const", "attr": {"value": {"tensor": {"dtype": "DT_INT32", "tensorShape": {}}}, "dtype": {"type": "DT_INT32"}}}, {"name": "bert/encoder/layer_21/ffn_layer_2/intermediate/dense/kernel", "op": "Const", "attr": {"dtype": {"type": "DT_FLOAT"}, "value": {"tensor": {"dtype": "DT_FLOAT", "tensorShape": {"dim": [{"size": "128"}, {"size": "512"}]}}}}}, {"name": "bert/encoder/layer_21/ffn_layer_2/intermediate/dense/bias", "op": "Const", "attr": {"value": {"tensor": {"dtype": "DT_FLOAT", "tensorShape": {"dim": [{"size": "512"}]}}}, "dtype": {"type": "DT_FLOAT"}}}, {"name": "bert/encoder/layer_21/ffn_layer_2/intermediate/strided_slice_2/stack", "op": "Const", "attr": {"dtype": {"type": "DT_INT32"}, "value": {"tensor": {"dtype": "DT_INT32", "tensorShape": {"dim": [{"size": "1"}]}}}}}, {"name": "bert/encoder/layer_21/ffn_layer_2/intermediate/strided_slice_2/stack_1", "op": "Const", "attr": {"dtype": {"type": "DT_INT32"}, "value": {"tensor": {"dtype": "DT_INT32", "tensorShape": {"dim": [{"size": "1"}]}}}}}, {"name": "bert/encoder/layer_21/ffn_layer_2/intermediate/strided_slice_2/stack_2", "op": "Const", "attr": {"dtype": {"type": "DT_INT32"}, "value": {"tensor": {"dtype": "DT_INT32", "tensorShape": {"dim": [{"size": "1"}]}}}}}, {"name": "bert/encoder/layer_21/ffn_layer_2/intermediate/strided_slice_3/stack", "op": "Const", "attr": {"value": {"tensor": {"dtype": "DT_INT32", "tensorShape": {"dim": [{"size": "1"}]}}}, "dtype": {"type": "DT_INT32"}}}, {"name": "bert/encoder/layer_21/ffn_layer_2/intermediate/strided_slice_3/stack_1", "op": "Const", "attr": {"dtype": {"type": "DT_INT32"}, "value": {"tensor": {"dtype": "DT_INT32", "tensorShape": {"dim": [{"size": "1"}]}}}}}, {"name": "bert/encoder/layer_21/ffn_layer_2/intermediate/strided_slice_3/stack_2", "op": "Const", "attr": {"dtype": {"type": "DT_INT32"}, "value": {"tensor": {"dtype": "DT_INT32", "tensorShape": {"dim": [{"size": "1"}]}}}}}, {"name": "bert/encoder/layer_21/ffn_layer_2/intermediate/dense/Reshape_1/shape/2", "op": "Const", "attr": {"value": {"tensor": {"dtype": "DT_INT32", "tensorShape": {}}}, "dtype": {"type": "DT_INT32"}}}, {"name": "bert/encoder/layer_21/ffn_layer_2/output/strided_slice_3/stack", "op": "Const", "attr": {"value": {"tensor": {"dtype": "DT_INT32", "tensorShape": {"dim": [{"size": "1"}]}}}, "dtype": {"type": "DT_INT32"}}}, {"name": "bert/encoder/layer_21/ffn_layer_2/output/strided_slice_3/stack_1", "op": "Const", "attr": {"value": {"tensor": {"dtype": "DT_INT32", "tensorShape": {"dim": [{"size": "1"}]}}}, "dtype": {"type": "DT_INT32"}}}, {"name": "bert/encoder/layer_21/ffn_layer_2/output/strided_slice_3/stack_2", "op": "Const", "attr": {"dtype": {"type": "DT_INT32"}, "value": {"tensor": {"dtype": "DT_INT32", "tensorShape": {"dim": [{"size": "1"}]}}}}}, {"name": "bert/encoder/layer_21/ffn_layer_2/output/dense/Reshape_1/shape/2", "op": "Const", "attr": {"value": {"tensor": {"dtype": "DT_INT32", "tensorShape": {}}}, "dtype": {"type": "DT_INT32"}}}, {"name": "bert/encoder/layer_21/ffn_layer_1/output/dense/kernel", "op": "Const", "attr": {"value": {"tensor": {"dtype": "DT_FLOAT", "tensorShape": {"dim": [{"size": "512"}, {"size": "128"}]}}}, "dtype": {"type": "DT_FLOAT"}}}, {"name": "bert/encoder/layer_21/ffn_layer_1/output/dense/bias", "op": "Const", "attr": {"value": {"tensor": {"dtype": "DT_FLOAT", "tensorShape": {"dim": [{"size": "128"}]}}}, "dtype": {"type": "DT_FLOAT"}}}, {"name": "bert/encoder/layer_21/ffn_layer_1/output/strided_slice_2/stack", "op": "Const", "attr": {"value": {"tensor": {"dtype": "DT_INT32", "tensorShape": {"dim": [{"size": "1"}]}}}, "dtype": {"type": "DT_INT32"}}}, {"name": "bert/encoder/layer_21/ffn_layer_1/output/strided_slice_2/stack_1", "op": "Const", "attr": {"dtype": {"type": "DT_INT32"}, "value": {"tensor": {"dtype": "DT_INT32", "tensorShape": {"dim": [{"size": "1"}]}}}}}, {"name": "bert/encoder/layer_21/ffn_layer_1/output/strided_slice_2/stack_2", "op": "Const", "attr": {"value": {"tensor": {"dtype": "DT_INT32", "tensorShape": {"dim": [{"size": "1"}]}}}, "dtype": {"type": "DT_INT32"}}}, {"name": "bert/encoder/layer_21/ffn_layer_1/intermediate/dense/Reshape/shape/1", "op": "Const", "attr": {"value": {"tensor": {"dtype": "DT_INT32", "tensorShape": {}}}, "dtype": {"type": "DT_INT32"}}}, {"name": "bert/encoder/layer_21/ffn_layer_1/intermediate/dense/kernel", "op": "Const", "attr": {"dtype": {"type": "DT_FLOAT"}, "value": {"tensor": {"dtype": "DT_FLOAT", "tensorShape": {"dim": [{"size": "128"}, {"size": "512"}]}}}}}, {"name": "bert/encoder/layer_21/ffn_layer_1/intermediate/dense/bias", "op": "Const", "attr": {"value": {"tensor": {"dtype": "DT_FLOAT", "tensorShape": {"dim": [{"size": "512"}]}}}, "dtype": {"type": "DT_FLOAT"}}}, {"name": "bert/encoder/layer_21/ffn_layer_1/intermediate/strided_slice_2/stack", "op": "Const", "attr": {"dtype": {"type": "DT_INT32"}, "value": {"tensor": {"dtype": "DT_INT32", "tensorShape": {"dim": [{"size": "1"}]}}}}}, {"name": "bert/encoder/layer_21/ffn_layer_1/intermediate/strided_slice_2/stack_1", "op": "Const", "attr": {"dtype": {"type": "DT_INT32"}, "value": {"tensor": {"dtype": "DT_INT32", "tensorShape": {"dim": [{"size": "1"}]}}}}}, {"name": "bert/encoder/layer_21/ffn_layer_1/intermediate/strided_slice_2/stack_2", "op": "Const", "attr": {"value": {"tensor": {"dtype": "DT_INT32", "tensorShape": {"dim": [{"size": "1"}]}}}, "dtype": {"type": "DT_INT32"}}}, {"name": "bert/encoder/layer_21/ffn_layer_1/intermediate/strided_slice_3/stack", "op": "Const", "attr": {"dtype": {"type": "DT_INT32"}, "value": {"tensor": {"dtype": "DT_INT32", "tensorShape": {"dim": [{"size": "1"}]}}}}}, {"name": "bert/encoder/layer_21/ffn_layer_1/intermediate/strided_slice_3/stack_1", "op": "Const", "attr": {"dtype": {"type": "DT_INT32"}, "value": {"tensor": {"dtype": "DT_INT32", "tensorShape": {"dim": [{"size": "1"}]}}}}}, {"name": "bert/encoder/layer_21/ffn_layer_1/intermediate/strided_slice_3/stack_2", "op": "Const", "attr": {"dtype": {"type": "DT_INT32"}, "value": {"tensor": {"dtype": "DT_INT32", "tensorShape": {"dim": [{"size": "1"}]}}}}}, {"name": "bert/encoder/layer_21/ffn_layer_1/intermediate/dense/Reshape_1/shape/2", "op": "Const", "attr": {"dtype": {"type": "DT_INT32"}, "value": {"tensor": {"dtype": "DT_INT32", "tensorShape": {}}}}}, {"name": "bert/encoder/layer_21/ffn_layer_1/output/strided_slice_3/stack", "op": "Const", "attr": {"dtype": {"type": "DT_INT32"}, "value": {"tensor": {"dtype": "DT_INT32", "tensorShape": {"dim": [{"size": "1"}]}}}}}, {"name": "bert/encoder/layer_21/ffn_layer_1/output/strided_slice_3/stack_1", "op": "Const", "attr": {"dtype": {"type": "DT_INT32"}, "value": {"tensor": {"dtype": "DT_INT32", "tensorShape": {"dim": [{"size": "1"}]}}}}}, {"name": "bert/encoder/layer_21/ffn_layer_1/output/strided_slice_3/stack_2", "op": "Const", "attr": {"dtype": {"type": "DT_INT32"}, "value": {"tensor": {"dtype": "DT_INT32", "tensorShape": {"dim": [{"size": "1"}]}}}}}, {"name": "bert/encoder/layer_21/ffn_layer_1/output/dense/Reshape_1/shape/2", "op": "Const", "attr": {"value": {"tensor": {"dtype": "DT_INT32", "tensorShape": {}}}, "dtype": {"type": "DT_INT32"}}}, {"name": "bert/encoder/layer_21/ffn_layer_0/output/dense/kernel", "op": "Const", "attr": {"dtype": {"type": "DT_FLOAT"}, "value": {"tensor": {"dtype": "DT_FLOAT", "tensorShape": {"dim": [{"size": "512"}, {"size": "128"}]}}}}}, {"name": "bert/encoder/layer_21/ffn_layer_0/output/dense/bias", "op": "Const", "attr": {"dtype": {"type": "DT_FLOAT"}, "value": {"tensor": {"dtype": "DT_FLOAT", "tensorShape": {"dim": [{"size": "128"}]}}}}}, {"name": "bert/encoder/layer_21/ffn_layer_0/output/strided_slice_2/stack", "op": "Const", "attr": {"dtype": {"type": "DT_INT32"}, "value": {"tensor": {"dtype": "DT_INT32", "tensorShape": {"dim": [{"size": "1"}]}}}}}, {"name": "bert/encoder/layer_21/ffn_layer_0/output/strided_slice_2/stack_1", "op": "Const", "attr": {"dtype": {"type": "DT_INT32"}, "value": {"tensor": {"dtype": "DT_INT32", "tensorShape": {"dim": [{"size": "1"}]}}}}}, {"name": "bert/encoder/layer_21/ffn_layer_0/output/strided_slice_2/stack_2", "op": "Const", "attr": {"value": {"tensor": {"dtype": "DT_INT32", "tensorShape": {"dim": [{"size": "1"}]}}}, "dtype": {"type": "DT_INT32"}}}, {"name": "bert/encoder/layer_21/ffn_layer_0/intermediate/dense/Reshape/shape/1", "op": "Const", "attr": {"value": {"tensor": {"dtype": "DT_INT32", "tensorShape": {}}}, "dtype": {"type": "DT_INT32"}}}, {"name": "bert/encoder/layer_21/ffn_layer_0/intermediate/dense/kernel", "op": "Const", "attr": {"dtype": {"type": "DT_FLOAT"}, "value": {"tensor": {"dtype": "DT_FLOAT", "tensorShape": {"dim": [{"size": "128"}, {"size": "512"}]}}}}}, {"name": "bert/encoder/layer_21/ffn_layer_0/intermediate/dense/bias", "op": "Const", "attr": {"value": {"tensor": {"dtype": "DT_FLOAT", "tensorShape": {"dim": [{"size": "512"}]}}}, "dtype": {"type": "DT_FLOAT"}}}, {"name": "bert/encoder/layer_21/ffn_layer_0/intermediate/strided_slice_2/stack", "op": "Const", "attr": {"dtype": {"type": "DT_INT32"}, "value": {"tensor": {"dtype": "DT_INT32", "tensorShape": {"dim": [{"size": "1"}]}}}}}, {"name": "bert/encoder/layer_21/ffn_layer_0/intermediate/strided_slice_2/stack_1", "op": "Const", "attr": {"dtype": {"type": "DT_INT32"}, "value": {"tensor": {"dtype": "DT_INT32", "tensorShape": {"dim": [{"size": "1"}]}}}}}, {"name": "bert/encoder/layer_21/ffn_layer_0/intermediate/strided_slice_2/stack_2", "op": "Const", "attr": {"value": {"tensor": {"dtype": "DT_INT32", "tensorShape": {"dim": [{"size": "1"}]}}}, "dtype": {"type": "DT_INT32"}}}, {"name": "bert/encoder/layer_21/ffn_layer_0/intermediate/strided_slice_3/stack", "op": "Const", "attr": {"value": {"tensor": {"dtype": "DT_INT32", "tensorShape": {"dim": [{"size": "1"}]}}}, "dtype": {"type": "DT_INT32"}}}, {"name": "bert/encoder/layer_21/ffn_layer_0/intermediate/strided_slice_3/stack_1", "op": "Const", "attr": {"dtype": {"type": "DT_INT32"}, "value": {"tensor": {"dtype": "DT_INT32", "tensorShape": {"dim": [{"size": "1"}]}}}}}, {"name": "bert/encoder/layer_21/ffn_layer_0/intermediate/strided_slice_3/stack_2", "op": "Const", "attr": {"value": {"tensor": {"dtype": "DT_INT32", "tensorShape": {"dim": [{"size": "1"}]}}}, "dtype": {"type": "DT_INT32"}}}, {"name": "bert/encoder/layer_21/ffn_layer_0/intermediate/dense/Reshape_1/shape/2", "op": "Const", "attr": {"value": {"tensor": {"dtype": "DT_INT32", "tensorShape": {}}}, "dtype": {"type": "DT_INT32"}}}, {"name": "bert/encoder/layer_21/ffn_layer_0/output/strided_slice_3/stack", "op": "Const", "attr": {"dtype": {"type": "DT_INT32"}, "value": {"tensor": {"dtype": "DT_INT32", "tensorShape": {"dim": [{"size": "1"}]}}}}}, {"name": "bert/encoder/layer_21/ffn_layer_0/output/strided_slice_3/stack_1", "op": "Const", "attr": {"value": {"tensor": {"dtype": "DT_INT32", "tensorShape": {"dim": [{"size": "1"}]}}}, "dtype": {"type": "DT_INT32"}}}, {"name": "bert/encoder/layer_21/ffn_layer_0/output/strided_slice_3/stack_2", "op": "Const", "attr": {"value": {"tensor": {"dtype": "DT_INT32", "tensorShape": {"dim": [{"size": "1"}]}}}, "dtype": {"type": "DT_INT32"}}}, {"name": "bert/encoder/layer_21/ffn_layer_0/output/dense/Reshape_1/shape/2", "op": "Const", "attr": {"dtype": {"type": "DT_INT32"}, "value": {"tensor": {"dtype": "DT_INT32", "tensorShape": {}}}}}, {"name": "bert/encoder/layer_21/attention/output/dense/Reshape/shape/1", "op": "Const", "attr": {"value": {"tensor": {"dtype": "DT_INT32", "tensorShape": {}}}, "dtype": {"type": "DT_INT32"}}}, {"name": "bert/encoder/layer_21/attention/output/dense/kernel", "op": "Const", "attr": {"value": {"tensor": {"dtype": "DT_FLOAT", "tensorShape": {"dim": [{"size": "128"}, {"size": "128"}]}}}, "dtype": {"type": "DT_FLOAT"}}}, {"name": "bert/encoder/layer_21/attention/output/dense/bias", "op": "Const", "attr": {"dtype": {"type": "DT_FLOAT"}, "value": {"tensor": {"dtype": "DT_FLOAT", "tensorShape": {"dim": [{"size": "128"}]}}}}}, {"name": "bert/encoder/layer_21/attention/output/strided_slice/stack", "op": "Const", "attr": {"dtype": {"type": "DT_INT32"}, "value": {"tensor": {"dtype": "DT_INT32", "tensorShape": {"dim": [{"size": "1"}]}}}}}, {"name": "bert/encoder/layer_21/attention/output/strided_slice/stack_1", "op": "Const", "attr": {"value": {"tensor": {"dtype": "DT_INT32", "tensorShape": {"dim": [{"size": "1"}]}}}, "dtype": {"type": "DT_INT32"}}}, {"name": "bert/encoder/layer_21/attention/output/strided_slice/stack_2", "op": "Const", "attr": {"value": {"tensor": {"dtype": "DT_INT32", "tensorShape": {"dim": [{"size": "1"}]}}}, "dtype": {"type": "DT_INT32"}}}, {"name": "bert/encoder/layer_21/attention/self/dropout/Const", "op": "Const", "attr": {"dtype": {"type": "DT_FLOAT"}, "value": {"tensor": {"dtype": "DT_FLOAT", "tensorShape": {}}}}}, {"name": "bert/encoder/layer_21/attention/self/query/Reshape/shape/1", "op": "Const", "attr": {"dtype": {"type": "DT_INT32"}, "value": {"tensor": {"dtype": "DT_INT32", "tensorShape": {}}}}}, {"name": "bert/encoder/layer_21/attention/self/query/kernel", "op": "Const", "attr": {"dtype": {"type": "DT_FLOAT"}, "value": {"tensor": {"dtype": "DT_FLOAT", "tensorShape": {"dim": [{"size": "128"}, {"size": "128"}]}}}}}, {"name": "bert/encoder/layer_21/attention/self/query/bias", "op": "Const", "attr": {"value": {"tensor": {"dtype": "DT_FLOAT", "tensorShape": {"dim": [{"size": "128"}]}}}, "dtype": {"type": "DT_FLOAT"}}}, {"name": "bert/encoder/layer_21/attention/self/strided_slice_4/stack", "op": "Const", "attr": {"dtype": {"type": "DT_INT32"}, "value": {"tensor": {"dtype": "DT_INT32", "tensorShape": {"dim": [{"size": "1"}]}}}}}, {"name": "bert/encoder/layer_21/attention/self/strided_slice_4/stack_1", "op": "Const", "attr": {"dtype": {"type": "DT_INT32"}, "value": {"tensor": {"dtype": "DT_INT32", "tensorShape": {"dim": [{"size": "1"}]}}}}}, {"name": "bert/encoder/layer_21/attention/self/strided_slice_4/stack_2", "op": "Const", "attr": {"dtype": {"type": "DT_INT32"}, "value": {"tensor": {"dtype": "DT_INT32", "tensorShape": {"dim": [{"size": "1"}]}}}}}, {"name": "bert/encoder/layer_21/attention/self/strided_slice_5/stack", "op": "Const", "attr": {"dtype": {"type": "DT_INT32"}, "value": {"tensor": {"dtype": "DT_INT32", "tensorShape": {"dim": [{"size": "1"}]}}}}}, {"name": "bert/encoder/layer_21/attention/self/strided_slice_5/stack_1", "op": "Const", "attr": {"value": {"tensor": {"dtype": "DT_INT32", "tensorShape": {"dim": [{"size": "1"}]}}}, "dtype": {"type": "DT_INT32"}}}, {"name": "bert/encoder/layer_21/attention/self/strided_slice_5/stack_2", "op": "Const", "attr": {"dtype": {"type": "DT_INT32"}, "value": {"tensor": {"dtype": "DT_INT32", "tensorShape": {"dim": [{"size": "1"}]}}}}}, {"name": "bert/encoder/layer_21/attention/self/query/Reshape_1/shape/2", "op": "Const", "attr": {"dtype": {"type": "DT_INT32"}, "value": {"tensor": {"dtype": "DT_INT32", "tensorShape": {}}}}}, {"name": "bert/encoder/layer_21/attention/self/query/Reshape_1/shape/3", "op": "Const", "attr": {"value": {"tensor": {"dtype": "DT_INT32", "tensorShape": {}}}, "dtype": {"type": "DT_INT32"}}}, {"name": "bert/encoder/layer_21/attention/self/transpose/perm", "op": "Const", "attr": {"dtype": {"type": "DT_INT32"}, "value": {"tensor": {"dtype": "DT_INT32", "tensorShape": {"dim": [{"size": "4"}]}}}}}, {"name": "bert/encoder/layer_21/attention/self/key/Reshape/shape/1", "op": "Const", "attr": {"value": {"tensor": {"dtype": "DT_INT32", "tensorShape": {}}}, "dtype": {"type": "DT_INT32"}}}, {"name": "bert/encoder/layer_21/attention/self/key/kernel", "op": "Const", "attr": {"dtype": {"type": "DT_FLOAT"}, "value": {"tensor": {"dtype": "DT_FLOAT", "tensorShape": {"dim": [{"size": "128"}, {"size": "128"}]}}}}}, {"name": "bert/encoder/layer_21/attention/self/key/bias", "op": "Const", "attr": {"value": {"tensor": {"dtype": "DT_FLOAT", "tensorShape": {"dim": [{"size": "128"}]}}}, "dtype": {"type": "DT_FLOAT"}}}, {"name": "bert/encoder/layer_21/attention/self/strided_slice_6/stack", "op": "Const", "attr": {"value": {"tensor": {"dtype": "DT_INT32", "tensorShape": {"dim": [{"size": "1"}]}}}, "dtype": {"type": "DT_INT32"}}}, {"name": "bert/encoder/layer_21/attention/self/strided_slice_6/stack_1", "op": "Const", "attr": {"dtype": {"type": "DT_INT32"}, "value": {"tensor": {"dtype": "DT_INT32", "tensorShape": {"dim": [{"size": "1"}]}}}}}, {"name": "bert/encoder/layer_21/attention/self/strided_slice_6/stack_2", "op": "Const", "attr": {"dtype": {"type": "DT_INT32"}, "value": {"tensor": {"dtype": "DT_INT32", "tensorShape": {"dim": [{"size": "1"}]}}}}}, {"name": "bert/encoder/layer_21/bottleneck/attention/dense/Tensordot/Const", "op": "Const", "attr": {"value": {"tensor": {"dtype": "DT_INT32", "tensorShape": {"dim": [{"size": "1"}]}}}, "dtype": {"type": "DT_INT32"}}}, {"name": "bert/encoder/layer_21/bottleneck/attention/dense/Tensordot/axes", "op": "Const", "attr": {"dtype": {"type": "DT_INT32"}, "value": {"tensor": {"dtype": "DT_INT32", "tensorShape": {"dim": [{"size": "1"}]}}}}}, {"name": "bert/encoder/layer_21/bottleneck/attention/dense/Tensordot/GatherV2_1/axis", "op": "Const", "attr": {"dtype": {"type": "DT_INT32"}, "value": {"tensor": {"dtype": "DT_INT32", "tensorShape": {}}}}}, {"name": "bert/encoder/layer_21/bottleneck/attention/dense/Tensordot/Const_1", "op": "Const", "attr": {"dtype": {"type": "DT_INT32"}, "value": {"tensor": {"dtype": "DT_INT32", "tensorShape": {"dim": [{"size": "1"}]}}}}}, {"name": "bert/encoder/layer_21/bottleneck/attention/dense/kernel", "op": "Const", "attr": {"value": {"tensor": {"dtype": "DT_FLOAT", "tensorShape": {"dim": [{"size": "512"}, {"size": "128"}]}}}, "dtype": {"type": "DT_FLOAT"}}}, {"name": "bert/encoder/layer_21/bottleneck/attention/dense/Tensordot/free", "op": "Const", "attr": {"dtype": {"type": "DT_INT32"}, "value": {"tensor": {"dtype": "DT_INT32", "tensorShape": {"dim": [{"size": "2"}]}}}}}, {"name": "bert/encoder/layer_21/bottleneck/attention/dense/Tensordot/GatherV2/axis", "op": "Const", "attr": {"dtype": {"type": "DT_INT32"}, "value": {"tensor": {"dtype": "DT_INT32", "tensorShape": {}}}}}, {"name": "bert/encoder/layer_21/bottleneck/attention/dense/Tensordot/Const_2", "op": "Const", "attr": {"value": {"tensor": {"dtype": "DT_INT32", "tensorShape": {"dim": [{"size": "1"}]}}}, "dtype": {"type": "DT_INT32"}}}, {"name": "bert/encoder/layer_21/bottleneck/attention/dense/Tensordot/concat_1/axis", "op": "Const", "attr": {"dtype": {"type": "DT_INT32"}, "value": {"tensor": {"dtype": "DT_INT32", "tensorShape": {}}}}}, {"name": "bert/encoder/layer_21/bottleneck/attention/dense/bias", "op": "Const", "attr": {"value": {"tensor": {"dtype": "DT_FLOAT", "tensorShape": {"dim": [{"size": "128"}]}}}, "dtype": {"type": "DT_FLOAT"}}}, {"name": "bert/encoder/layer_21/bottleneck/attention/FakeLayerNorm/gamma", "op": "Const", "attr": {"value": {"tensor": {"dtype": "DT_FLOAT", "tensorShape": {"dim": [{"size": "128"}]}}}, "dtype": {"type": "DT_FLOAT"}}}, {"name": "bert/encoder/layer_21/bottleneck/attention/FakeLayerNorm/beta", "op": "Const", "attr": {"value": {"tensor": {"dtype": "DT_FLOAT", "tensorShape": {"dim": [{"size": "128"}]}}}, "dtype": {"type": "DT_FLOAT"}}}, {"name": "bert/encoder/layer_21/attention/self/strided_slice_7/stack", "op": "Const", "attr": {"dtype": {"type": "DT_INT32"}, "value": {"tensor": {"dtype": "DT_INT32", "tensorShape": {"dim": [{"size": "1"}]}}}}}, {"name": "bert/encoder/layer_21/attention/self/strided_slice_7/stack_1", "op": "Const", "attr": {"value": {"tensor": {"dtype": "DT_INT32", "tensorShape": {"dim": [{"size": "1"}]}}}, "dtype": {"type": "DT_INT32"}}}, {"name": "bert/encoder/layer_21/attention/self/strided_slice_7/stack_2", "op": "Const", "attr": {"value": {"tensor": {"dtype": "DT_INT32", "tensorShape": {"dim": [{"size": "1"}]}}}, "dtype": {"type": "DT_INT32"}}}, {"name": "bert/encoder/layer_21/attention/self/key/Reshape_1/shape/2", "op": "Const", "attr": {"value": {"tensor": {"dtype": "DT_INT32", "tensorShape": {}}}, "dtype": {"type": "DT_INT32"}}}, {"name": "bert/encoder/layer_21/attention/self/key/Reshape_1/shape/3", "op": "Const", "attr": {"value": {"tensor": {"dtype": "DT_INT32", "tensorShape": {}}}, "dtype": {"type": "DT_INT32"}}}, {"name": "bert/encoder/layer_21/attention/self/transpose_1/perm", "op": "Const", "attr": {"dtype": {"type": "DT_INT32"}, "value": {"tensor": {"dtype": "DT_INT32", "tensorShape": {"dim": [{"size": "4"}]}}}}}, {"name": "bert/encoder/layer_21/attention/self/Mul/y", "op": "Const", "attr": {"dtype": {"type": "DT_FLOAT"}, "value": {"tensor": {"dtype": "DT_FLOAT", "tensorShape": {}}}}}, {"name": "bert/encoder/layer_21/attention/self/Add/x", "op": "Const", "attr": {"dtype": {"type": "DT_FLOAT"}, "value": {"tensor": {"dtype": "DT_FLOAT", "tensorShape": {}}}}}, {"name": "bert/encoder/layer_21/attention/self/ExpandDims/dim", "op": "Const", "attr": {"dtype": {"type": "DT_INT32"}, "value": {"tensor": {"dtype": "DT_INT32", "tensorShape": {"dim": [{"size": "1"}]}}}}}, {"name": "bert/encoder/layer_21/attention/self/mul_1/y", "op": "Const", "attr": {"dtype": {"type": "DT_FLOAT"}, "value": {"tensor": {"dtype": "DT_FLOAT", "tensorShape": {}}}}}, {"name": "bert/encoder/layer_21/attention/self/dropout/GreaterEqual/y", "op": "Const", "attr": {"dtype": {"type": "DT_FLOAT"}, "value": {"tensor": {"dtype": "DT_FLOAT", "tensorShape": {}}}}}, {"name": "bert/encoder/layer_21/attention/self/value/Reshape/shape/1", "op": "Const", "attr": {"dtype": {"type": "DT_INT32"}, "value": {"tensor": {"dtype": "DT_INT32", "tensorShape": {}}}}}, {"name": "bert/encoder/layer_21/attention/self/value/kernel", "op": "Const", "attr": {"value": {"tensor": {"dtype": "DT_FLOAT", "tensorShape": {"dim": [{"size": "512"}, {"size": "128"}]}}}, "dtype": {"type": "DT_FLOAT"}}}, {"name": "bert/encoder/layer_21/attention/self/value/bias", "op": "Const", "attr": {"value": {"tensor": {"dtype": "DT_FLOAT", "tensorShape": {"dim": [{"size": "128"}]}}}, "dtype": {"type": "DT_FLOAT"}}}, {"name": "bert/encoder/layer_21/attention/self/strided_slice_8/stack", "op": "Const", "attr": {"value": {"tensor": {"dtype": "DT_INT32", "tensorShape": {"dim": [{"size": "1"}]}}}, "dtype": {"type": "DT_INT32"}}}, {"name": "bert/encoder/layer_21/attention/self/strided_slice_8/stack_1", "op": "Const", "attr": {"value": {"tensor": {"dtype": "DT_INT32", "tensorShape": {"dim": [{"size": "1"}]}}}, "dtype": {"type": "DT_INT32"}}}, {"name": "bert/encoder/layer_21/attention/self/strided_slice_8/stack_2", "op": "Const", "attr": {"dtype": {"type": "DT_INT32"}, "value": {"tensor": {"dtype": "DT_INT32", "tensorShape": {"dim": [{"size": "1"}]}}}}}, {"name": "bert/encoder/layer_21/attention/self/strided_slice_9/stack", "op": "Const", "attr": {"dtype": {"type": "DT_INT32"}, "value": {"tensor": {"dtype": "DT_INT32", "tensorShape": {"dim": [{"size": "1"}]}}}}}, {"name": "bert/encoder/layer_21/attention/self/strided_slice_9/stack_1", "op": "Const", "attr": {"dtype": {"type": "DT_INT32"}, "value": {"tensor": {"dtype": "DT_INT32", "tensorShape": {"dim": [{"size": "1"}]}}}}}, {"name": "bert/encoder/layer_21/attention/self/strided_slice_9/stack_2", "op": "Const", "attr": {"dtype": {"type": "DT_INT32"}, "value": {"tensor": {"dtype": "DT_INT32", "tensorShape": {"dim": [{"size": "1"}]}}}}}, {"name": "bert/encoder/layer_21/attention/self/value/Reshape_1/shape/2", "op": "Const", "attr": {"dtype": {"type": "DT_INT32"}, "value": {"tensor": {"dtype": "DT_INT32", "tensorShape": {}}}}}, {"name": "bert/encoder/layer_21/attention/self/value/Reshape_1/shape/3", "op": "Const", "attr": {"dtype": {"type": "DT_INT32"}, "value": {"tensor": {"dtype": "DT_INT32", "tensorShape": {}}}}}, {"name": "bert/encoder/layer_21/attention/self/transpose_2/perm", "op": "Const", "attr": {"dtype": {"type": "DT_INT32"}, "value": {"tensor": {"dtype": "DT_INT32", "tensorShape": {"dim": [{"size": "4"}]}}}}}, {"name": "bert/encoder/layer_21/attention/self/transpose_3/perm", "op": "Const", "attr": {"dtype": {"type": "DT_INT32"}, "value": {"tensor": {"dtype": "DT_INT32", "tensorShape": {"dim": [{"size": "4"}]}}}}}, {"name": "bert/encoder/layer_21/attention/output/strided_slice_3/stack", "op": "Const", "attr": {"value": {"tensor": {"dtype": "DT_INT32", "tensorShape": {"dim": [{"size": "1"}]}}}, "dtype": {"type": "DT_INT32"}}}, {"name": "bert/encoder/layer_21/attention/output/strided_slice_3/stack_1", "op": "Const", "attr": {"value": {"tensor": {"dtype": "DT_INT32", "tensorShape": {"dim": [{"size": "1"}]}}}, "dtype": {"type": "DT_INT32"}}}, {"name": "bert/encoder/layer_21/attention/output/strided_slice_3/stack_2", "op": "Const", "attr": {"dtype": {"type": "DT_INT32"}, "value": {"tensor": {"dtype": "DT_INT32", "tensorShape": {"dim": [{"size": "1"}]}}}}}, {"name": "bert/encoder/layer_21/attention/output/dense/Reshape_1/shape/2", "op": "Const", "attr": {"dtype": {"type": "DT_INT32"}, "value": {"tensor": {"dtype": "DT_INT32", "tensorShape": {}}}}}, {"name": "bert/encoder/layer_21/bottleneck/input/dense/Reshape/shape/1", "op": "Const", "attr": {"dtype": {"type": "DT_INT32"}, "value": {"tensor": {"dtype": "DT_INT32", "tensorShape": {}}}}}, {"name": "bert/encoder/layer_21/bottleneck/input/dense/kernel", "op": "Const", "attr": {"value": {"tensor": {"dtype": "DT_FLOAT", "tensorShape": {"dim": [{"size": "512"}, {"size": "128"}]}}}, "dtype": {"type": "DT_FLOAT"}}}, {"name": "bert/encoder/layer_21/bottleneck/input/dense/bias", "op": "Const", "attr": {"dtype": {"type": "DT_FLOAT"}, "value": {"tensor": {"dtype": "DT_FLOAT", "tensorShape": {"dim": [{"size": "128"}]}}}}}, {"name": "bert/encoder/layer_21/bottleneck/input/strided_slice_2/stack", "op": "Const", "attr": {"value": {"tensor": {"dtype": "DT_INT32", "tensorShape": {"dim": [{"size": "1"}]}}}, "dtype": {"type": "DT_INT32"}}}, {"name": "bert/encoder/layer_21/bottleneck/input/strided_slice_2/stack_1", "op": "Const", "attr": {"dtype": {"type": "DT_INT32"}, "value": {"tensor": {"dtype": "DT_INT32", "tensorShape": {"dim": [{"size": "1"}]}}}}}, {"name": "bert/encoder/layer_21/bottleneck/input/strided_slice_2/stack_2", "op": "Const", "attr": {"dtype": {"type": "DT_INT32"}, "value": {"tensor": {"dtype": "DT_INT32", "tensorShape": {"dim": [{"size": "1"}]}}}}}, {"name": "bert/encoder/layer_21/bottleneck/input/strided_slice_3/stack", "op": "Const", "attr": {"dtype": {"type": "DT_INT32"}, "value": {"tensor": {"dtype": "DT_INT32", "tensorShape": {"dim": [{"size": "1"}]}}}}}, {"name": "bert/encoder/layer_21/bottleneck/input/strided_slice_3/stack_1", "op": "Const", "attr": {"dtype": {"type": "DT_INT32"}, "value": {"tensor": {"dtype": "DT_INT32", "tensorShape": {"dim": [{"size": "1"}]}}}}}, {"name": "bert/encoder/layer_21/bottleneck/input/strided_slice_3/stack_2", "op": "Const", "attr": {"value": {"tensor": {"dtype": "DT_INT32", "tensorShape": {"dim": [{"size": "1"}]}}}, "dtype": {"type": "DT_INT32"}}}, {"name": "bert/encoder/layer_21/bottleneck/input/dense/Reshape_1/shape/2", "op": "Const", "attr": {"value": {"tensor": {"dtype": "DT_INT32", "tensorShape": {}}}, "dtype": {"type": "DT_INT32"}}}, {"name": "bert/encoder/layer_21/bottleneck/input/FakeLayerNorm/gamma", "op": "Const", "attr": {"value": {"tensor": {"dtype": "DT_FLOAT", "tensorShape": {"dim": [{"size": "128"}]}}}, "dtype": {"type": "DT_FLOAT"}}}, {"name": "bert/encoder/layer_21/bottleneck/input/FakeLayerNorm/beta", "op": "Const", "attr": {"value": {"tensor": {"dtype": "DT_FLOAT", "tensorShape": {"dim": [{"size": "128"}]}}}, "dtype": {"type": "DT_FLOAT"}}}, {"name": "bert/encoder/layer_21/attention/output/FakeLayerNorm/gamma", "op": "Const", "attr": {"dtype": {"type": "DT_FLOAT"}, "value": {"tensor": {"dtype": "DT_FLOAT", "tensorShape": {"dim": [{"size": "128"}]}}}}}, {"name": "bert/encoder/layer_21/attention/output/FakeLayerNorm/beta", "op": "Const", "attr": {"value": {"tensor": {"dtype": "DT_FLOAT", "tensorShape": {"dim": [{"size": "128"}]}}}, "dtype": {"type": "DT_FLOAT"}}}, {"name": "bert/encoder/layer_21/ffn_layer_0/output/FakeLayerNorm/gamma", "op": "Const", "attr": {"dtype": {"type": "DT_FLOAT"}, "value": {"tensor": {"dtype": "DT_FLOAT", "tensorShape": {"dim": [{"size": "128"}]}}}}}, {"name": "bert/encoder/layer_21/ffn_layer_0/output/FakeLayerNorm/beta", "op": "Const", "attr": {"dtype": {"type": "DT_FLOAT"}, "value": {"tensor": {"dtype": "DT_FLOAT", "tensorShape": {"dim": [{"size": "128"}]}}}}}, {"name": "bert/encoder/layer_21/ffn_layer_1/output/FakeLayerNorm/gamma", "op": "Const", "attr": {"dtype": {"type": "DT_FLOAT"}, "value": {"tensor": {"dtype": "DT_FLOAT", "tensorShape": {"dim": [{"size": "128"}]}}}}}, {"name": "bert/encoder/layer_21/ffn_layer_1/output/FakeLayerNorm/beta", "op": "Const", "attr": {"value": {"tensor": {"dtype": "DT_FLOAT", "tensorShape": {"dim": [{"size": "128"}]}}}, "dtype": {"type": "DT_FLOAT"}}}, {"name": "bert/encoder/layer_21/ffn_layer_2/output/FakeLayerNorm/gamma", "op": "Const", "attr": {"dtype": {"type": "DT_FLOAT"}, "value": {"tensor": {"dtype": "DT_FLOAT", "tensorShape": {"dim": [{"size": "128"}]}}}}}, {"name": "bert/encoder/layer_21/ffn_layer_2/output/FakeLayerNorm/beta", "op": "Const", "attr": {"dtype": {"type": "DT_FLOAT"}, "value": {"tensor": {"dtype": "DT_FLOAT", "tensorShape": {"dim": [{"size": "128"}]}}}}}, {"name": "bert/encoder/layer_21/output/FakeLayerNorm/gamma", "op": "Const", "attr": {"dtype": {"type": "DT_FLOAT"}, "value": {"tensor": {"dtype": "DT_FLOAT", "tensorShape": {"dim": [{"size": "128"}]}}}}}, {"name": "bert/encoder/layer_21/output/FakeLayerNorm/beta", "op": "Const", "attr": {"value": {"tensor": {"dtype": "DT_FLOAT", "tensorShape": {"dim": [{"size": "128"}]}}}, "dtype": {"type": "DT_FLOAT"}}}, {"name": "bert/encoder/layer_21/output/bottleneck/strided_slice_3/stack", "op": "Const", "attr": {"value": {"tensor": {"dtype": "DT_INT32", "tensorShape": {"dim": [{"size": "1"}]}}}, "dtype": {"type": "DT_INT32"}}}, {"name": "bert/encoder/layer_21/output/bottleneck/strided_slice_3/stack_1", "op": "Const", "attr": {"dtype": {"type": "DT_INT32"}, "value": {"tensor": {"dtype": "DT_INT32", "tensorShape": {"dim": [{"size": "1"}]}}}}}, {"name": "bert/encoder/layer_21/output/bottleneck/strided_slice_3/stack_2", "op": "Const", "attr": {"value": {"tensor": {"dtype": "DT_INT32", "tensorShape": {"dim": [{"size": "1"}]}}}, "dtype": {"type": "DT_INT32"}}}, {"name": "bert/encoder/layer_21/output/bottleneck/dense/Reshape_1/shape/2", "op": "Const", "attr": {"dtype": {"type": "DT_INT32"}, "value": {"tensor": {"dtype": "DT_INT32", "tensorShape": {}}}}}, {"name": "bert/encoder/layer_20/output/bottleneck/dense/Reshape/shape/1", "op": "Const", "attr": {"value": {"tensor": {"dtype": "DT_INT32", "tensorShape": {}}}, "dtype": {"type": "DT_INT32"}}}, {"name": "bert/encoder/layer_20/output/bottleneck/dense/kernel", "op": "Const", "attr": {"value": {"tensor": {"dtype": "DT_FLOAT", "tensorShape": {"dim": [{"size": "128"}, {"size": "512"}]}}}, "dtype": {"type": "DT_FLOAT"}}}, {"name": "bert/encoder/layer_20/output/bottleneck/dense/bias", "op": "Const", "attr": {"value": {"tensor": {"dtype": "DT_FLOAT", "tensorShape": {"dim": [{"size": "512"}]}}}, "dtype": {"type": "DT_FLOAT"}}}, {"name": "bert/encoder/layer_20/output/bottleneck/strided_slice_2/stack", "op": "Const", "attr": {"value": {"tensor": {"dtype": "DT_INT32", "tensorShape": {"dim": [{"size": "1"}]}}}, "dtype": {"type": "DT_INT32"}}}, {"name": "bert/encoder/layer_20/output/bottleneck/strided_slice_2/stack_1", "op": "Const", "attr": {"value": {"tensor": {"dtype": "DT_INT32", "tensorShape": {"dim": [{"size": "1"}]}}}, "dtype": {"type": "DT_INT32"}}}, {"name": "bert/encoder/layer_20/output/bottleneck/strided_slice_2/stack_2", "op": "Const", "attr": {"dtype": {"type": "DT_INT32"}, "value": {"tensor": {"dtype": "DT_INT32", "tensorShape": {"dim": [{"size": "1"}]}}}}}, {"name": "bert/encoder/layer_20/output/dense/kernel", "op": "Const", "attr": {"dtype": {"type": "DT_FLOAT"}, "value": {"tensor": {"dtype": "DT_FLOAT", "tensorShape": {"dim": [{"size": "512"}, {"size": "128"}]}}}}}, {"name": "bert/encoder/layer_20/output/dense/bias", "op": "Const", "attr": {"value": {"tensor": {"dtype": "DT_FLOAT", "tensorShape": {"dim": [{"size": "128"}]}}}, "dtype": {"type": "DT_FLOAT"}}}, {"name": "bert/encoder/layer_20/output/strided_slice_2/stack", "op": "Const", "attr": {"dtype": {"type": "DT_INT32"}, "value": {"tensor": {"dtype": "DT_INT32", "tensorShape": {"dim": [{"size": "1"}]}}}}}, {"name": "bert/encoder/layer_20/output/strided_slice_2/stack_1", "op": "Const", "attr": {"dtype": {"type": "DT_INT32"}, "value": {"tensor": {"dtype": "DT_INT32", "tensorShape": {"dim": [{"size": "1"}]}}}}}, {"name": "bert/encoder/layer_20/output/strided_slice_2/stack_2", "op": "Const", "attr": {"value": {"tensor": {"dtype": "DT_INT32", "tensorShape": {"dim": [{"size": "1"}]}}}, "dtype": {"type": "DT_INT32"}}}, {"name": "bert/encoder/layer_20/intermediate/dense/Reshape/shape/1", "op": "Const", "attr": {"dtype": {"type": "DT_INT32"}, "value": {"tensor": {"dtype": "DT_INT32", "tensorShape": {}}}}}, {"name": "bert/encoder/layer_20/intermediate/dense/kernel", "op": "Const", "attr": {"value": {"tensor": {"dtype": "DT_FLOAT", "tensorShape": {"dim": [{"size": "128"}, {"size": "512"}]}}}, "dtype": {"type": "DT_FLOAT"}}}, {"name": "bert/encoder/layer_20/intermediate/dense/bias", "op": "Const", "attr": {"value": {"tensor": {"dtype": "DT_FLOAT", "tensorShape": {"dim": [{"size": "512"}]}}}, "dtype": {"type": "DT_FLOAT"}}}, {"name": "bert/encoder/layer_20/intermediate/strided_slice_2/stack", "op": "Const", "attr": {"dtype": {"type": "DT_INT32"}, "value": {"tensor": {"dtype": "DT_INT32", "tensorShape": {"dim": [{"size": "1"}]}}}}}, {"name": "bert/encoder/layer_20/intermediate/strided_slice_2/stack_1", "op": "Const", "attr": {"dtype": {"type": "DT_INT32"}, "value": {"tensor": {"dtype": "DT_INT32", "tensorShape": {"dim": [{"size": "1"}]}}}}}, {"name": "bert/encoder/layer_20/intermediate/strided_slice_2/stack_2", "op": "Const", "attr": {"value": {"tensor": {"dtype": "DT_INT32", "tensorShape": {"dim": [{"size": "1"}]}}}, "dtype": {"type": "DT_INT32"}}}, {"name": "bert/encoder/layer_20/intermediate/strided_slice_3/stack", "op": "Const", "attr": {"value": {"tensor": {"dtype": "DT_INT32", "tensorShape": {"dim": [{"size": "1"}]}}}, "dtype": {"type": "DT_INT32"}}}, {"name": "bert/encoder/layer_20/intermediate/strided_slice_3/stack_1", "op": "Const", "attr": {"value": {"tensor": {"dtype": "DT_INT32", "tensorShape": {"dim": [{"size": "1"}]}}}, "dtype": {"type": "DT_INT32"}}}, {"name": "bert/encoder/layer_20/intermediate/strided_slice_3/stack_2", "op": "Const", "attr": {"dtype": {"type": "DT_INT32"}, "value": {"tensor": {"dtype": "DT_INT32", "tensorShape": {"dim": [{"size": "1"}]}}}}}, {"name": "bert/encoder/layer_20/intermediate/dense/Reshape_1/shape/2", "op": "Const", "attr": {"dtype": {"type": "DT_INT32"}, "value": {"tensor": {"dtype": "DT_INT32", "tensorShape": {}}}}}, {"name": "bert/encoder/layer_20/output/strided_slice_3/stack", "op": "Const", "attr": {"dtype": {"type": "DT_INT32"}, "value": {"tensor": {"dtype": "DT_INT32", "tensorShape": {"dim": [{"size": "1"}]}}}}}, {"name": "bert/encoder/layer_20/output/strided_slice_3/stack_1", "op": "Const", "attr": {"dtype": {"type": "DT_INT32"}, "value": {"tensor": {"dtype": "DT_INT32", "tensorShape": {"dim": [{"size": "1"}]}}}}}, {"name": "bert/encoder/layer_20/output/strided_slice_3/stack_2", "op": "Const", "attr": {"dtype": {"type": "DT_INT32"}, "value": {"tensor": {"dtype": "DT_INT32", "tensorShape": {"dim": [{"size": "1"}]}}}}}, {"name": "bert/encoder/layer_20/output/dense/Reshape_1/shape/2", "op": "Const", "attr": {"dtype": {"type": "DT_INT32"}, "value": {"tensor": {"dtype": "DT_INT32", "tensorShape": {}}}}}, {"name": "bert/encoder/layer_20/ffn_layer_2/output/dense/kernel", "op": "Const", "attr": {"dtype": {"type": "DT_FLOAT"}, "value": {"tensor": {"dtype": "DT_FLOAT", "tensorShape": {"dim": [{"size": "512"}, {"size": "128"}]}}}}}, {"name": "bert/encoder/layer_20/ffn_layer_2/output/dense/bias", "op": "Const", "attr": {"dtype": {"type": "DT_FLOAT"}, "value": {"tensor": {"dtype": "DT_FLOAT", "tensorShape": {"dim": [{"size": "128"}]}}}}}, {"name": "bert/encoder/layer_20/ffn_layer_2/output/strided_slice_2/stack", "op": "Const", "attr": {"dtype": {"type": "DT_INT32"}, "value": {"tensor": {"dtype": "DT_INT32", "tensorShape": {"dim": [{"size": "1"}]}}}}}, {"name": "bert/encoder/layer_20/ffn_layer_2/output/strided_slice_2/stack_1", "op": "Const", "attr": {"dtype": {"type": "DT_INT32"}, "value": {"tensor": {"dtype": "DT_INT32", "tensorShape": {"dim": [{"size": "1"}]}}}}}, {"name": "bert/encoder/layer_20/ffn_layer_2/output/strided_slice_2/stack_2", "op": "Const", "attr": {"dtype": {"type": "DT_INT32"}, "value": {"tensor": {"dtype": "DT_INT32", "tensorShape": {"dim": [{"size": "1"}]}}}}}, {"name": "bert/encoder/layer_20/ffn_layer_2/intermediate/dense/Reshape/shape/1", "op": "Const", "attr": {"dtype": {"type": "DT_INT32"}, "value": {"tensor": {"dtype": "DT_INT32", "tensorShape": {}}}}}, {"name": "bert/encoder/layer_20/ffn_layer_2/intermediate/dense/kernel", "op": "Const", "attr": {"value": {"tensor": {"dtype": "DT_FLOAT", "tensorShape": {"dim": [{"size": "128"}, {"size": "512"}]}}}, "dtype": {"type": "DT_FLOAT"}}}, {"name": "bert/encoder/layer_20/ffn_layer_2/intermediate/dense/bias", "op": "Const", "attr": {"dtype": {"type": "DT_FLOAT"}, "value": {"tensor": {"dtype": "DT_FLOAT", "tensorShape": {"dim": [{"size": "512"}]}}}}}, {"name": "bert/encoder/layer_20/ffn_layer_2/intermediate/strided_slice_2/stack", "op": "Const", "attr": {"dtype": {"type": "DT_INT32"}, "value": {"tensor": {"dtype": "DT_INT32", "tensorShape": {"dim": [{"size": "1"}]}}}}}, {"name": "bert/encoder/layer_20/ffn_layer_2/intermediate/strided_slice_2/stack_1", "op": "Const", "attr": {"dtype": {"type": "DT_INT32"}, "value": {"tensor": {"dtype": "DT_INT32", "tensorShape": {"dim": [{"size": "1"}]}}}}}, {"name": "bert/encoder/layer_20/ffn_layer_2/intermediate/strided_slice_2/stack_2", "op": "Const", "attr": {"dtype": {"type": "DT_INT32"}, "value": {"tensor": {"dtype": "DT_INT32", "tensorShape": {"dim": [{"size": "1"}]}}}}}, {"name": "bert/encoder/layer_20/ffn_layer_2/intermediate/strided_slice_3/stack", "op": "Const", "attr": {"dtype": {"type": "DT_INT32"}, "value": {"tensor": {"dtype": "DT_INT32", "tensorShape": {"dim": [{"size": "1"}]}}}}}, {"name": "bert/encoder/layer_20/ffn_layer_2/intermediate/strided_slice_3/stack_1", "op": "Const", "attr": {"value": {"tensor": {"dtype": "DT_INT32", "tensorShape": {"dim": [{"size": "1"}]}}}, "dtype": {"type": "DT_INT32"}}}, {"name": "bert/encoder/layer_20/ffn_layer_2/intermediate/strided_slice_3/stack_2", "op": "Const", "attr": {"value": {"tensor": {"dtype": "DT_INT32", "tensorShape": {"dim": [{"size": "1"}]}}}, "dtype": {"type": "DT_INT32"}}}, {"name": "bert/encoder/layer_20/ffn_layer_2/intermediate/dense/Reshape_1/shape/2", "op": "Const", "attr": {"dtype": {"type": "DT_INT32"}, "value": {"tensor": {"dtype": "DT_INT32", "tensorShape": {}}}}}, {"name": "bert/encoder/layer_20/ffn_layer_2/output/strided_slice_3/stack", "op": "Const", "attr": {"value": {"tensor": {"dtype": "DT_INT32", "tensorShape": {"dim": [{"size": "1"}]}}}, "dtype": {"type": "DT_INT32"}}}, {"name": "bert/encoder/layer_20/ffn_layer_2/output/strided_slice_3/stack_1", "op": "Const", "attr": {"value": {"tensor": {"dtype": "DT_INT32", "tensorShape": {"dim": [{"size": "1"}]}}}, "dtype": {"type": "DT_INT32"}}}, {"name": "bert/encoder/layer_20/ffn_layer_2/output/strided_slice_3/stack_2", "op": "Const", "attr": {"value": {"tensor": {"dtype": "DT_INT32", "tensorShape": {"dim": [{"size": "1"}]}}}, "dtype": {"type": "DT_INT32"}}}, {"name": "bert/encoder/layer_20/ffn_layer_2/output/dense/Reshape_1/shape/2", "op": "Const", "attr": {"value": {"tensor": {"dtype": "DT_INT32", "tensorShape": {}}}, "dtype": {"type": "DT_INT32"}}}, {"name": "bert/encoder/layer_20/ffn_layer_1/output/dense/kernel", "op": "Const", "attr": {"value": {"tensor": {"dtype": "DT_FLOAT", "tensorShape": {"dim": [{"size": "512"}, {"size": "128"}]}}}, "dtype": {"type": "DT_FLOAT"}}}, {"name": "bert/encoder/layer_20/ffn_layer_1/output/dense/bias", "op": "Const", "attr": {"value": {"tensor": {"dtype": "DT_FLOAT", "tensorShape": {"dim": [{"size": "128"}]}}}, "dtype": {"type": "DT_FLOAT"}}}, {"name": "bert/encoder/layer_20/ffn_layer_1/output/strided_slice_2/stack", "op": "Const", "attr": {"dtype": {"type": "DT_INT32"}, "value": {"tensor": {"dtype": "DT_INT32", "tensorShape": {"dim": [{"size": "1"}]}}}}}, {"name": "bert/encoder/layer_20/ffn_layer_1/output/strided_slice_2/stack_1", "op": "Const", "attr": {"value": {"tensor": {"dtype": "DT_INT32", "tensorShape": {"dim": [{"size": "1"}]}}}, "dtype": {"type": "DT_INT32"}}}, {"name": "bert/encoder/layer_20/ffn_layer_1/output/strided_slice_2/stack_2", "op": "Const", "attr": {"value": {"tensor": {"dtype": "DT_INT32", "tensorShape": {"dim": [{"size": "1"}]}}}, "dtype": {"type": "DT_INT32"}}}, {"name": "bert/encoder/layer_20/ffn_layer_1/intermediate/dense/Reshape/shape/1", "op": "Const", "attr": {"dtype": {"type": "DT_INT32"}, "value": {"tensor": {"dtype": "DT_INT32", "tensorShape": {}}}}}, {"name": "bert/encoder/layer_20/ffn_layer_1/intermediate/dense/kernel", "op": "Const", "attr": {"value": {"tensor": {"dtype": "DT_FLOAT", "tensorShape": {"dim": [{"size": "128"}, {"size": "512"}]}}}, "dtype": {"type": "DT_FLOAT"}}}, {"name": "bert/encoder/layer_20/ffn_layer_1/intermediate/dense/bias", "op": "Const", "attr": {"value": {"tensor": {"dtype": "DT_FLOAT", "tensorShape": {"dim": [{"size": "512"}]}}}, "dtype": {"type": "DT_FLOAT"}}}, {"name": "bert/encoder/layer_20/ffn_layer_1/intermediate/strided_slice_2/stack", "op": "Const", "attr": {"dtype": {"type": "DT_INT32"}, "value": {"tensor": {"dtype": "DT_INT32", "tensorShape": {"dim": [{"size": "1"}]}}}}}, {"name": "bert/encoder/layer_20/ffn_layer_1/intermediate/strided_slice_2/stack_1", "op": "Const", "attr": {"value": {"tensor": {"dtype": "DT_INT32", "tensorShape": {"dim": [{"size": "1"}]}}}, "dtype": {"type": "DT_INT32"}}}, {"name": "bert/encoder/layer_20/ffn_layer_1/intermediate/strided_slice_2/stack_2", "op": "Const", "attr": {"value": {"tensor": {"dtype": "DT_INT32", "tensorShape": {"dim": [{"size": "1"}]}}}, "dtype": {"type": "DT_INT32"}}}, {"name": "bert/encoder/layer_20/ffn_layer_1/intermediate/strided_slice_3/stack", "op": "Const", "attr": {"dtype": {"type": "DT_INT32"}, "value": {"tensor": {"dtype": "DT_INT32", "tensorShape": {"dim": [{"size": "1"}]}}}}}, {"name": "bert/encoder/layer_20/ffn_layer_1/intermediate/strided_slice_3/stack_1", "op": "Const", "attr": {"value": {"tensor": {"dtype": "DT_INT32", "tensorShape": {"dim": [{"size": "1"}]}}}, "dtype": {"type": "DT_INT32"}}}, {"name": "bert/encoder/layer_20/ffn_layer_1/intermediate/strided_slice_3/stack_2", "op": "Const", "attr": {"value": {"tensor": {"dtype": "DT_INT32", "tensorShape": {"dim": [{"size": "1"}]}}}, "dtype": {"type": "DT_INT32"}}}, {"name": "bert/encoder/layer_20/ffn_layer_1/intermediate/dense/Reshape_1/shape/2", "op": "Const", "attr": {"value": {"tensor": {"dtype": "DT_INT32", "tensorShape": {}}}, "dtype": {"type": "DT_INT32"}}}, {"name": "bert/encoder/layer_20/ffn_layer_1/output/strided_slice_3/stack", "op": "Const", "attr": {"value": {"tensor": {"dtype": "DT_INT32", "tensorShape": {"dim": [{"size": "1"}]}}}, "dtype": {"type": "DT_INT32"}}}, {"name": "bert/encoder/layer_20/ffn_layer_1/output/strided_slice_3/stack_1", "op": "Const", "attr": {"value": {"tensor": {"dtype": "DT_INT32", "tensorShape": {"dim": [{"size": "1"}]}}}, "dtype": {"type": "DT_INT32"}}}, {"name": "bert/encoder/layer_20/ffn_layer_1/output/strided_slice_3/stack_2", "op": "Const", "attr": {"dtype": {"type": "DT_INT32"}, "value": {"tensor": {"dtype": "DT_INT32", "tensorShape": {"dim": [{"size": "1"}]}}}}}, {"name": "bert/encoder/layer_20/ffn_layer_1/output/dense/Reshape_1/shape/2", "op": "Const", "attr": {"value": {"tensor": {"dtype": "DT_INT32", "tensorShape": {}}}, "dtype": {"type": "DT_INT32"}}}, {"name": "bert/encoder/layer_20/ffn_layer_0/output/dense/kernel", "op": "Const", "attr": {"dtype": {"type": "DT_FLOAT"}, "value": {"tensor": {"dtype": "DT_FLOAT", "tensorShape": {"dim": [{"size": "512"}, {"size": "128"}]}}}}}, {"name": "bert/encoder/layer_20/ffn_layer_0/output/dense/bias", "op": "Const", "attr": {"value": {"tensor": {"dtype": "DT_FLOAT", "tensorShape": {"dim": [{"size": "128"}]}}}, "dtype": {"type": "DT_FLOAT"}}}, {"name": "bert/encoder/layer_20/ffn_layer_0/output/strided_slice_2/stack", "op": "Const", "attr": {"value": {"tensor": {"dtype": "DT_INT32", "tensorShape": {"dim": [{"size": "1"}]}}}, "dtype": {"type": "DT_INT32"}}}, {"name": "bert/encoder/layer_20/ffn_layer_0/output/strided_slice_2/stack_1", "op": "Const", "attr": {"value": {"tensor": {"dtype": "DT_INT32", "tensorShape": {"dim": [{"size": "1"}]}}}, "dtype": {"type": "DT_INT32"}}}, {"name": "bert/encoder/layer_20/ffn_layer_0/output/strided_slice_2/stack_2", "op": "Const", "attr": {"dtype": {"type": "DT_INT32"}, "value": {"tensor": {"dtype": "DT_INT32", "tensorShape": {"dim": [{"size": "1"}]}}}}}, {"name": "bert/encoder/layer_20/ffn_layer_0/intermediate/dense/Reshape/shape/1", "op": "Const", "attr": {"dtype": {"type": "DT_INT32"}, "value": {"tensor": {"dtype": "DT_INT32", "tensorShape": {}}}}}, {"name": "bert/encoder/layer_20/ffn_layer_0/intermediate/dense/kernel", "op": "Const", "attr": {"dtype": {"type": "DT_FLOAT"}, "value": {"tensor": {"dtype": "DT_FLOAT", "tensorShape": {"dim": [{"size": "128"}, {"size": "512"}]}}}}}, {"name": "bert/encoder/layer_20/ffn_layer_0/intermediate/dense/bias", "op": "Const", "attr": {"dtype": {"type": "DT_FLOAT"}, "value": {"tensor": {"dtype": "DT_FLOAT", "tensorShape": {"dim": [{"size": "512"}]}}}}}, {"name": "bert/encoder/layer_20/ffn_layer_0/intermediate/strided_slice_2/stack", "op": "Const", "attr": {"value": {"tensor": {"dtype": "DT_INT32", "tensorShape": {"dim": [{"size": "1"}]}}}, "dtype": {"type": "DT_INT32"}}}, {"name": "bert/encoder/layer_20/ffn_layer_0/intermediate/strided_slice_2/stack_1", "op": "Const", "attr": {"dtype": {"type": "DT_INT32"}, "value": {"tensor": {"dtype": "DT_INT32", "tensorShape": {"dim": [{"size": "1"}]}}}}}, {"name": "bert/encoder/layer_20/ffn_layer_0/intermediate/strided_slice_2/stack_2", "op": "Const", "attr": {"value": {"tensor": {"dtype": "DT_INT32", "tensorShape": {"dim": [{"size": "1"}]}}}, "dtype": {"type": "DT_INT32"}}}, {"name": "bert/encoder/layer_20/ffn_layer_0/intermediate/strided_slice_3/stack", "op": "Const", "attr": {"dtype": {"type": "DT_INT32"}, "value": {"tensor": {"dtype": "DT_INT32", "tensorShape": {"dim": [{"size": "1"}]}}}}}, {"name": "bert/encoder/layer_20/ffn_layer_0/intermediate/strided_slice_3/stack_1", "op": "Const", "attr": {"dtype": {"type": "DT_INT32"}, "value": {"tensor": {"dtype": "DT_INT32", "tensorShape": {"dim": [{"size": "1"}]}}}}}, {"name": "bert/encoder/layer_20/ffn_layer_0/intermediate/strided_slice_3/stack_2", "op": "Const", "attr": {"dtype": {"type": "DT_INT32"}, "value": {"tensor": {"dtype": "DT_INT32", "tensorShape": {"dim": [{"size": "1"}]}}}}}, {"name": "bert/encoder/layer_20/ffn_layer_0/intermediate/dense/Reshape_1/shape/2", "op": "Const", "attr": {"value": {"tensor": {"dtype": "DT_INT32", "tensorShape": {}}}, "dtype": {"type": "DT_INT32"}}}, {"name": "bert/encoder/layer_20/ffn_layer_0/output/strided_slice_3/stack", "op": "Const", "attr": {"value": {"tensor": {"dtype": "DT_INT32", "tensorShape": {"dim": [{"size": "1"}]}}}, "dtype": {"type": "DT_INT32"}}}, {"name": "bert/encoder/layer_20/ffn_layer_0/output/strided_slice_3/stack_1", "op": "Const", "attr": {"value": {"tensor": {"dtype": "DT_INT32", "tensorShape": {"dim": [{"size": "1"}]}}}, "dtype": {"type": "DT_INT32"}}}, {"name": "bert/encoder/layer_20/ffn_layer_0/output/strided_slice_3/stack_2", "op": "Const", "attr": {"value": {"tensor": {"dtype": "DT_INT32", "tensorShape": {"dim": [{"size": "1"}]}}}, "dtype": {"type": "DT_INT32"}}}, {"name": "bert/encoder/layer_20/ffn_layer_0/output/dense/Reshape_1/shape/2", "op": "Const", "attr": {"dtype": {"type": "DT_INT32"}, "value": {"tensor": {"dtype": "DT_INT32", "tensorShape": {}}}}}, {"name": "bert/encoder/layer_20/attention/output/dense/Reshape/shape/1", "op": "Const", "attr": {"value": {"tensor": {"dtype": "DT_INT32", "tensorShape": {}}}, "dtype": {"type": "DT_INT32"}}}, {"name": "bert/encoder/layer_20/attention/output/dense/kernel", "op": "Const", "attr": {"value": {"tensor": {"dtype": "DT_FLOAT", "tensorShape": {"dim": [{"size": "128"}, {"size": "128"}]}}}, "dtype": {"type": "DT_FLOAT"}}}, {"name": "bert/encoder/layer_20/attention/output/dense/bias", "op": "Const", "attr": {"value": {"tensor": {"dtype": "DT_FLOAT", "tensorShape": {"dim": [{"size": "128"}]}}}, "dtype": {"type": "DT_FLOAT"}}}, {"name": "bert/encoder/layer_20/attention/output/strided_slice/stack", "op": "Const", "attr": {"value": {"tensor": {"dtype": "DT_INT32", "tensorShape": {"dim": [{"size": "1"}]}}}, "dtype": {"type": "DT_INT32"}}}, {"name": "bert/encoder/layer_20/attention/output/strided_slice/stack_1", "op": "Const", "attr": {"value": {"tensor": {"dtype": "DT_INT32", "tensorShape": {"dim": [{"size": "1"}]}}}, "dtype": {"type": "DT_INT32"}}}, {"name": "bert/encoder/layer_20/attention/output/strided_slice/stack_2", "op": "Const", "attr": {"value": {"tensor": {"dtype": "DT_INT32", "tensorShape": {"dim": [{"size": "1"}]}}}, "dtype": {"type": "DT_INT32"}}}, {"name": "bert/encoder/layer_20/attention/self/dropout/Const", "op": "Const", "attr": {"dtype": {"type": "DT_FLOAT"}, "value": {"tensor": {"dtype": "DT_FLOAT", "tensorShape": {}}}}}, {"name": "bert/encoder/layer_20/attention/self/query/Reshape/shape/1", "op": "Const", "attr": {"dtype": {"type": "DT_INT32"}, "value": {"tensor": {"dtype": "DT_INT32", "tensorShape": {}}}}}, {"name": "bert/encoder/layer_20/attention/self/query/kernel", "op": "Const", "attr": {"dtype": {"type": "DT_FLOAT"}, "value": {"tensor": {"dtype": "DT_FLOAT", "tensorShape": {"dim": [{"size": "128"}, {"size": "128"}]}}}}}, {"name": "bert/encoder/layer_20/attention/self/query/bias", "op": "Const", "attr": {"dtype": {"type": "DT_FLOAT"}, "value": {"tensor": {"dtype": "DT_FLOAT", "tensorShape": {"dim": [{"size": "128"}]}}}}}, {"name": "bert/encoder/layer_20/attention/self/strided_slice_4/stack", "op": "Const", "attr": {"dtype": {"type": "DT_INT32"}, "value": {"tensor": {"dtype": "DT_INT32", "tensorShape": {"dim": [{"size": "1"}]}}}}}, {"name": "bert/encoder/layer_20/attention/self/strided_slice_4/stack_1", "op": "Const", "attr": {"dtype": {"type": "DT_INT32"}, "value": {"tensor": {"dtype": "DT_INT32", "tensorShape": {"dim": [{"size": "1"}]}}}}}, {"name": "bert/encoder/layer_20/attention/self/strided_slice_4/stack_2", "op": "Const", "attr": {"dtype": {"type": "DT_INT32"}, "value": {"tensor": {"dtype": "DT_INT32", "tensorShape": {"dim": [{"size": "1"}]}}}}}, {"name": "bert/encoder/layer_20/attention/self/strided_slice_5/stack", "op": "Const", "attr": {"dtype": {"type": "DT_INT32"}, "value": {"tensor": {"dtype": "DT_INT32", "tensorShape": {"dim": [{"size": "1"}]}}}}}, {"name": "bert/encoder/layer_20/attention/self/strided_slice_5/stack_1", "op": "Const", "attr": {"dtype": {"type": "DT_INT32"}, "value": {"tensor": {"dtype": "DT_INT32", "tensorShape": {"dim": [{"size": "1"}]}}}}}, {"name": "bert/encoder/layer_20/attention/self/strided_slice_5/stack_2", "op": "Const", "attr": {"value": {"tensor": {"dtype": "DT_INT32", "tensorShape": {"dim": [{"size": "1"}]}}}, "dtype": {"type": "DT_INT32"}}}, {"name": "bert/encoder/layer_20/attention/self/query/Reshape_1/shape/2", "op": "Const", "attr": {"value": {"tensor": {"dtype": "DT_INT32", "tensorShape": {}}}, "dtype": {"type": "DT_INT32"}}}, {"name": "bert/encoder/layer_20/attention/self/query/Reshape_1/shape/3", "op": "Const", "attr": {"dtype": {"type": "DT_INT32"}, "value": {"tensor": {"dtype": "DT_INT32", "tensorShape": {}}}}}, {"name": "bert/encoder/layer_20/attention/self/transpose/perm", "op": "Const", "attr": {"dtype": {"type": "DT_INT32"}, "value": {"tensor": {"dtype": "DT_INT32", "tensorShape": {"dim": [{"size": "4"}]}}}}}, {"name": "bert/encoder/layer_20/attention/self/key/Reshape/shape/1", "op": "Const", "attr": {"dtype": {"type": "DT_INT32"}, "value": {"tensor": {"dtype": "DT_INT32", "tensorShape": {}}}}}, {"name": "bert/encoder/layer_20/attention/self/key/kernel", "op": "Const", "attr": {"value": {"tensor": {"dtype": "DT_FLOAT", "tensorShape": {"dim": [{"size": "128"}, {"size": "128"}]}}}, "dtype": {"type": "DT_FLOAT"}}}, {"name": "bert/encoder/layer_20/attention/self/key/bias", "op": "Const", "attr": {"dtype": {"type": "DT_FLOAT"}, "value": {"tensor": {"dtype": "DT_FLOAT", "tensorShape": {"dim": [{"size": "128"}]}}}}}, {"name": "bert/encoder/layer_20/attention/self/strided_slice_6/stack", "op": "Const", "attr": {"value": {"tensor": {"dtype": "DT_INT32", "tensorShape": {"dim": [{"size": "1"}]}}}, "dtype": {"type": "DT_INT32"}}}, {"name": "bert/encoder/layer_20/attention/self/strided_slice_6/stack_1", "op": "Const", "attr": {"value": {"tensor": {"dtype": "DT_INT32", "tensorShape": {"dim": [{"size": "1"}]}}}, "dtype": {"type": "DT_INT32"}}}, {"name": "bert/encoder/layer_20/attention/self/strided_slice_6/stack_2", "op": "Const", "attr": {"value": {"tensor": {"dtype": "DT_INT32", "tensorShape": {"dim": [{"size": "1"}]}}}, "dtype": {"type": "DT_INT32"}}}, {"name": "bert/encoder/layer_20/bottleneck/attention/dense/Tensordot/Const", "op": "Const", "attr": {"value": {"tensor": {"dtype": "DT_INT32", "tensorShape": {"dim": [{"size": "1"}]}}}, "dtype": {"type": "DT_INT32"}}}, {"name": "bert/encoder/layer_20/bottleneck/attention/dense/Tensordot/axes", "op": "Const", "attr": {"dtype": {"type": "DT_INT32"}, "value": {"tensor": {"dtype": "DT_INT32", "tensorShape": {"dim": [{"size": "1"}]}}}}}, {"name": "bert/encoder/layer_20/bottleneck/attention/dense/Tensordot/GatherV2_1/axis", "op": "Const", "attr": {"value": {"tensor": {"dtype": "DT_INT32", "tensorShape": {}}}, "dtype": {"type": "DT_INT32"}}}, {"name": "bert/encoder/layer_20/bottleneck/attention/dense/Tensordot/Const_1", "op": "Const", "attr": {"dtype": {"type": "DT_INT32"}, "value": {"tensor": {"dtype": "DT_INT32", "tensorShape": {"dim": [{"size": "1"}]}}}}}, {"name": "bert/encoder/layer_20/bottleneck/attention/dense/kernel", "op": "Const", "attr": {"value": {"tensor": {"dtype": "DT_FLOAT", "tensorShape": {"dim": [{"size": "512"}, {"size": "128"}]}}}, "dtype": {"type": "DT_FLOAT"}}}, {"name": "bert/encoder/layer_20/bottleneck/attention/dense/Tensordot/free", "op": "Const", "attr": {"dtype": {"type": "DT_INT32"}, "value": {"tensor": {"dtype": "DT_INT32", "tensorShape": {"dim": [{"size": "2"}]}}}}}, {"name": "bert/encoder/layer_20/bottleneck/attention/dense/Tensordot/GatherV2/axis", "op": "Const", "attr": {"dtype": {"type": "DT_INT32"}, "value": {"tensor": {"dtype": "DT_INT32", "tensorShape": {}}}}}, {"name": "bert/encoder/layer_20/bottleneck/attention/dense/Tensordot/Const_2", "op": "Const", "attr": {"dtype": {"type": "DT_INT32"}, "value": {"tensor": {"dtype": "DT_INT32", "tensorShape": {"dim": [{"size": "1"}]}}}}}, {"name": "bert/encoder/layer_20/bottleneck/attention/dense/Tensordot/concat_1/axis", "op": "Const", "attr": {"dtype": {"type": "DT_INT32"}, "value": {"tensor": {"dtype": "DT_INT32", "tensorShape": {}}}}}, {"name": "bert/encoder/layer_20/bottleneck/attention/dense/bias", "op": "Const", "attr": {"value": {"tensor": {"dtype": "DT_FLOAT", "tensorShape": {"dim": [{"size": "128"}]}}}, "dtype": {"type": "DT_FLOAT"}}}, {"name": "bert/encoder/layer_20/bottleneck/attention/FakeLayerNorm/gamma", "op": "Const", "attr": {"dtype": {"type": "DT_FLOAT"}, "value": {"tensor": {"dtype": "DT_FLOAT", "tensorShape": {"dim": [{"size": "128"}]}}}}}, {"name": "bert/encoder/layer_20/bottleneck/attention/FakeLayerNorm/beta", "op": "Const", "attr": {"dtype": {"type": "DT_FLOAT"}, "value": {"tensor": {"dtype": "DT_FLOAT", "tensorShape": {"dim": [{"size": "128"}]}}}}}, {"name": "bert/encoder/layer_20/attention/self/strided_slice_7/stack", "op": "Const", "attr": {"value": {"tensor": {"dtype": "DT_INT32", "tensorShape": {"dim": [{"size": "1"}]}}}, "dtype": {"type": "DT_INT32"}}}, {"name": "bert/encoder/layer_20/attention/self/strided_slice_7/stack_1", "op": "Const", "attr": {"dtype": {"type": "DT_INT32"}, "value": {"tensor": {"dtype": "DT_INT32", "tensorShape": {"dim": [{"size": "1"}]}}}}}, {"name": "bert/encoder/layer_20/attention/self/strided_slice_7/stack_2", "op": "Const", "attr": {"value": {"tensor": {"dtype": "DT_INT32", "tensorShape": {"dim": [{"size": "1"}]}}}, "dtype": {"type": "DT_INT32"}}}, {"name": "bert/encoder/layer_20/attention/self/key/Reshape_1/shape/2", "op": "Const", "attr": {"dtype": {"type": "DT_INT32"}, "value": {"tensor": {"dtype": "DT_INT32", "tensorShape": {}}}}}, {"name": "bert/encoder/layer_20/attention/self/key/Reshape_1/shape/3", "op": "Const", "attr": {"dtype": {"type": "DT_INT32"}, "value": {"tensor": {"dtype": "DT_INT32", "tensorShape": {}}}}}, {"name": "bert/encoder/layer_20/attention/self/transpose_1/perm", "op": "Const", "attr": {"dtype": {"type": "DT_INT32"}, "value": {"tensor": {"dtype": "DT_INT32", "tensorShape": {"dim": [{"size": "4"}]}}}}}, {"name": "bert/encoder/layer_20/attention/self/Mul/y", "op": "Const", "attr": {"value": {"tensor": {"dtype": "DT_FLOAT", "tensorShape": {}}}, "dtype": {"type": "DT_FLOAT"}}}, {"name": "bert/encoder/layer_20/attention/self/Add/x", "op": "Const", "attr": {"value": {"tensor": {"dtype": "DT_FLOAT", "tensorShape": {}}}, "dtype": {"type": "DT_FLOAT"}}}, {"name": "bert/encoder/layer_20/attention/self/ExpandDims/dim", "op": "Const", "attr": {"value": {"tensor": {"dtype": "DT_INT32", "tensorShape": {"dim": [{"size": "1"}]}}}, "dtype": {"type": "DT_INT32"}}}, {"name": "bert/encoder/layer_20/attention/self/mul_1/y", "op": "Const", "attr": {"dtype": {"type": "DT_FLOAT"}, "value": {"tensor": {"dtype": "DT_FLOAT", "tensorShape": {}}}}}, {"name": "bert/encoder/layer_20/attention/self/dropout/GreaterEqual/y", "op": "Const", "attr": {"dtype": {"type": "DT_FLOAT"}, "value": {"tensor": {"dtype": "DT_FLOAT", "tensorShape": {}}}}}, {"name": "bert/encoder/layer_20/attention/self/value/Reshape/shape/1", "op": "Const", "attr": {"dtype": {"type": "DT_INT32"}, "value": {"tensor": {"dtype": "DT_INT32", "tensorShape": {}}}}}, {"name": "bert/encoder/layer_20/attention/self/value/kernel", "op": "Const", "attr": {"value": {"tensor": {"dtype": "DT_FLOAT", "tensorShape": {"dim": [{"size": "512"}, {"size": "128"}]}}}, "dtype": {"type": "DT_FLOAT"}}}, {"name": "bert/encoder/layer_20/attention/self/value/bias", "op": "Const", "attr": {"value": {"tensor": {"dtype": "DT_FLOAT", "tensorShape": {"dim": [{"size": "128"}]}}}, "dtype": {"type": "DT_FLOAT"}}}, {"name": "bert/encoder/layer_20/attention/self/strided_slice_8/stack", "op": "Const", "attr": {"dtype": {"type": "DT_INT32"}, "value": {"tensor": {"dtype": "DT_INT32", "tensorShape": {"dim": [{"size": "1"}]}}}}}, {"name": "bert/encoder/layer_20/attention/self/strided_slice_8/stack_1", "op": "Const", "attr": {"dtype": {"type": "DT_INT32"}, "value": {"tensor": {"dtype": "DT_INT32", "tensorShape": {"dim": [{"size": "1"}]}}}}}, {"name": "bert/encoder/layer_20/attention/self/strided_slice_8/stack_2", "op": "Const", "attr": {"value": {"tensor": {"dtype": "DT_INT32", "tensorShape": {"dim": [{"size": "1"}]}}}, "dtype": {"type": "DT_INT32"}}}, {"name": "bert/encoder/layer_20/attention/self/strided_slice_9/stack", "op": "Const", "attr": {"value": {"tensor": {"dtype": "DT_INT32", "tensorShape": {"dim": [{"size": "1"}]}}}, "dtype": {"type": "DT_INT32"}}}, {"name": "bert/encoder/layer_20/attention/self/strided_slice_9/stack_1", "op": "Const", "attr": {"value": {"tensor": {"dtype": "DT_INT32", "tensorShape": {"dim": [{"size": "1"}]}}}, "dtype": {"type": "DT_INT32"}}}, {"name": "bert/encoder/layer_20/attention/self/strided_slice_9/stack_2", "op": "Const", "attr": {"dtype": {"type": "DT_INT32"}, "value": {"tensor": {"dtype": "DT_INT32", "tensorShape": {"dim": [{"size": "1"}]}}}}}, {"name": "bert/encoder/layer_20/attention/self/value/Reshape_1/shape/2", "op": "Const", "attr": {"value": {"tensor": {"dtype": "DT_INT32", "tensorShape": {}}}, "dtype": {"type": "DT_INT32"}}}, {"name": "bert/encoder/layer_20/attention/self/value/Reshape_1/shape/3", "op": "Const", "attr": {"value": {"tensor": {"dtype": "DT_INT32", "tensorShape": {}}}, "dtype": {"type": "DT_INT32"}}}, {"name": "bert/encoder/layer_20/attention/self/transpose_2/perm", "op": "Const", "attr": {"dtype": {"type": "DT_INT32"}, "value": {"tensor": {"dtype": "DT_INT32", "tensorShape": {"dim": [{"size": "4"}]}}}}}, {"name": "bert/encoder/layer_20/attention/self/transpose_3/perm", "op": "Const", "attr": {"value": {"tensor": {"dtype": "DT_INT32", "tensorShape": {"dim": [{"size": "4"}]}}}, "dtype": {"type": "DT_INT32"}}}, {"name": "bert/encoder/layer_20/attention/output/strided_slice_3/stack", "op": "Const", "attr": {"value": {"tensor": {"dtype": "DT_INT32", "tensorShape": {"dim": [{"size": "1"}]}}}, "dtype": {"type": "DT_INT32"}}}, {"name": "bert/encoder/layer_20/attention/output/strided_slice_3/stack_1", "op": "Const", "attr": {"dtype": {"type": "DT_INT32"}, "value": {"tensor": {"dtype": "DT_INT32", "tensorShape": {"dim": [{"size": "1"}]}}}}}, {"name": "bert/encoder/layer_20/attention/output/strided_slice_3/stack_2", "op": "Const", "attr": {"value": {"tensor": {"dtype": "DT_INT32", "tensorShape": {"dim": [{"size": "1"}]}}}, "dtype": {"type": "DT_INT32"}}}, {"name": "bert/encoder/layer_20/attention/output/dense/Reshape_1/shape/2", "op": "Const", "attr": {"dtype": {"type": "DT_INT32"}, "value": {"tensor": {"dtype": "DT_INT32", "tensorShape": {}}}}}, {"name": "bert/encoder/layer_20/bottleneck/input/dense/Reshape/shape/1", "op": "Const", "attr": {"value": {"tensor": {"dtype": "DT_INT32", "tensorShape": {}}}, "dtype": {"type": "DT_INT32"}}}, {"name": "bert/encoder/layer_20/bottleneck/input/dense/kernel", "op": "Const", "attr": {"dtype": {"type": "DT_FLOAT"}, "value": {"tensor": {"dtype": "DT_FLOAT", "tensorShape": {"dim": [{"size": "512"}, {"size": "128"}]}}}}}, {"name": "bert/encoder/layer_20/bottleneck/input/dense/bias", "op": "Const", "attr": {"dtype": {"type": "DT_FLOAT"}, "value": {"tensor": {"dtype": "DT_FLOAT", "tensorShape": {"dim": [{"size": "128"}]}}}}}, {"name": "bert/encoder/layer_20/bottleneck/input/strided_slice_2/stack", "op": "Const", "attr": {"value": {"tensor": {"dtype": "DT_INT32", "tensorShape": {"dim": [{"size": "1"}]}}}, "dtype": {"type": "DT_INT32"}}}, {"name": "bert/encoder/layer_20/bottleneck/input/strided_slice_2/stack_1", "op": "Const", "attr": {"dtype": {"type": "DT_INT32"}, "value": {"tensor": {"dtype": "DT_INT32", "tensorShape": {"dim": [{"size": "1"}]}}}}}, {"name": "bert/encoder/layer_20/bottleneck/input/strided_slice_2/stack_2", "op": "Const", "attr": {"dtype": {"type": "DT_INT32"}, "value": {"tensor": {"dtype": "DT_INT32", "tensorShape": {"dim": [{"size": "1"}]}}}}}, {"name": "bert/encoder/layer_20/bottleneck/input/strided_slice_3/stack", "op": "Const", "attr": {"dtype": {"type": "DT_INT32"}, "value": {"tensor": {"dtype": "DT_INT32", "tensorShape": {"dim": [{"size": "1"}]}}}}}, {"name": "bert/encoder/layer_20/bottleneck/input/strided_slice_3/stack_1", "op": "Const", "attr": {"value": {"tensor": {"dtype": "DT_INT32", "tensorShape": {"dim": [{"size": "1"}]}}}, "dtype": {"type": "DT_INT32"}}}, {"name": "bert/encoder/layer_20/bottleneck/input/strided_slice_3/stack_2", "op": "Const", "attr": {"value": {"tensor": {"dtype": "DT_INT32", "tensorShape": {"dim": [{"size": "1"}]}}}, "dtype": {"type": "DT_INT32"}}}, {"name": "bert/encoder/layer_20/bottleneck/input/dense/Reshape_1/shape/2", "op": "Const", "attr": {"dtype": {"type": "DT_INT32"}, "value": {"tensor": {"dtype": "DT_INT32", "tensorShape": {}}}}}, {"name": "bert/encoder/layer_20/bottleneck/input/FakeLayerNorm/gamma", "op": "Const", "attr": {"value": {"tensor": {"dtype": "DT_FLOAT", "tensorShape": {"dim": [{"size": "128"}]}}}, "dtype": {"type": "DT_FLOAT"}}}, {"name": "bert/encoder/layer_20/bottleneck/input/FakeLayerNorm/beta", "op": "Const", "attr": {"dtype": {"type": "DT_FLOAT"}, "value": {"tensor": {"dtype": "DT_FLOAT", "tensorShape": {"dim": [{"size": "128"}]}}}}}, {"name": "bert/encoder/layer_20/attention/output/FakeLayerNorm/gamma", "op": "Const", "attr": {"dtype": {"type": "DT_FLOAT"}, "value": {"tensor": {"dtype": "DT_FLOAT", "tensorShape": {"dim": [{"size": "128"}]}}}}}, {"name": "bert/encoder/layer_20/attention/output/FakeLayerNorm/beta", "op": "Const", "attr": {"dtype": {"type": "DT_FLOAT"}, "value": {"tensor": {"dtype": "DT_FLOAT", "tensorShape": {"dim": [{"size": "128"}]}}}}}, {"name": "bert/encoder/layer_20/ffn_layer_0/output/FakeLayerNorm/gamma", "op": "Const", "attr": {"dtype": {"type": "DT_FLOAT"}, "value": {"tensor": {"dtype": "DT_FLOAT", "tensorShape": {"dim": [{"size": "128"}]}}}}}, {"name": "bert/encoder/layer_20/ffn_layer_0/output/FakeLayerNorm/beta", "op": "Const", "attr": {"value": {"tensor": {"dtype": "DT_FLOAT", "tensorShape": {"dim": [{"size": "128"}]}}}, "dtype": {"type": "DT_FLOAT"}}}, {"name": "bert/encoder/layer_20/ffn_layer_1/output/FakeLayerNorm/gamma", "op": "Const", "attr": {"value": {"tensor": {"dtype": "DT_FLOAT", "tensorShape": {"dim": [{"size": "128"}]}}}, "dtype": {"type": "DT_FLOAT"}}}, {"name": "bert/encoder/layer_20/ffn_layer_1/output/FakeLayerNorm/beta", "op": "Const", "attr": {"value": {"tensor": {"dtype": "DT_FLOAT", "tensorShape": {"dim": [{"size": "128"}]}}}, "dtype": {"type": "DT_FLOAT"}}}, {"name": "bert/encoder/layer_20/ffn_layer_2/output/FakeLayerNorm/gamma", "op": "Const", "attr": {"dtype": {"type": "DT_FLOAT"}, "value": {"tensor": {"dtype": "DT_FLOAT", "tensorShape": {"dim": [{"size": "128"}]}}}}}, {"name": "bert/encoder/layer_20/ffn_layer_2/output/FakeLayerNorm/beta", "op": "Const", "attr": {"dtype": {"type": "DT_FLOAT"}, "value": {"tensor": {"dtype": "DT_FLOAT", "tensorShape": {"dim": [{"size": "128"}]}}}}}, {"name": "bert/encoder/layer_20/output/FakeLayerNorm/gamma", "op": "Const", "attr": {"value": {"tensor": {"dtype": "DT_FLOAT", "tensorShape": {"dim": [{"size": "128"}]}}}, "dtype": {"type": "DT_FLOAT"}}}, {"name": "bert/encoder/layer_20/output/FakeLayerNorm/beta", "op": "Const", "attr": {"value": {"tensor": {"dtype": "DT_FLOAT", "tensorShape": {"dim": [{"size": "128"}]}}}, "dtype": {"type": "DT_FLOAT"}}}, {"name": "bert/encoder/layer_20/output/bottleneck/strided_slice_3/stack", "op": "Const", "attr": {"value": {"tensor": {"dtype": "DT_INT32", "tensorShape": {"dim": [{"size": "1"}]}}}, "dtype": {"type": "DT_INT32"}}}, {"name": "bert/encoder/layer_20/output/bottleneck/strided_slice_3/stack_1", "op": "Const", "attr": {"dtype": {"type": "DT_INT32"}, "value": {"tensor": {"dtype": "DT_INT32", "tensorShape": {"dim": [{"size": "1"}]}}}}}, {"name": "bert/encoder/layer_20/output/bottleneck/strided_slice_3/stack_2", "op": "Const", "attr": {"value": {"tensor": {"dtype": "DT_INT32", "tensorShape": {"dim": [{"size": "1"}]}}}, "dtype": {"type": "DT_INT32"}}}, {"name": "bert/encoder/layer_20/output/bottleneck/dense/Reshape_1/shape/2", "op": "Const", "attr": {"value": {"tensor": {"dtype": "DT_INT32", "tensorShape": {}}}, "dtype": {"type": "DT_INT32"}}}, {"name": "bert/encoder/layer_19/output/bottleneck/dense/Reshape/shape/1", "op": "Const", "attr": {"dtype": {"type": "DT_INT32"}, "value": {"tensor": {"dtype": "DT_INT32", "tensorShape": {}}}}}, {"name": "bert/encoder/layer_19/output/bottleneck/dense/kernel", "op": "Const", "attr": {"value": {"tensor": {"dtype": "DT_FLOAT", "tensorShape": {"dim": [{"size": "128"}, {"size": "512"}]}}}, "dtype": {"type": "DT_FLOAT"}}}, {"name": "bert/encoder/layer_19/output/bottleneck/dense/bias", "op": "Const", "attr": {"value": {"tensor": {"dtype": "DT_FLOAT", "tensorShape": {"dim": [{"size": "512"}]}}}, "dtype": {"type": "DT_FLOAT"}}}, {"name": "bert/encoder/layer_19/output/bottleneck/strided_slice_2/stack", "op": "Const", "attr": {"value": {"tensor": {"dtype": "DT_INT32", "tensorShape": {"dim": [{"size": "1"}]}}}, "dtype": {"type": "DT_INT32"}}}, {"name": "bert/encoder/layer_19/output/bottleneck/strided_slice_2/stack_1", "op": "Const", "attr": {"value": {"tensor": {"dtype": "DT_INT32", "tensorShape": {"dim": [{"size": "1"}]}}}, "dtype": {"type": "DT_INT32"}}}, {"name": "bert/encoder/layer_19/output/bottleneck/strided_slice_2/stack_2", "op": "Const", "attr": {"value": {"tensor": {"dtype": "DT_INT32", "tensorShape": {"dim": [{"size": "1"}]}}}, "dtype": {"type": "DT_INT32"}}}, {"name": "bert/encoder/layer_19/output/dense/kernel", "op": "Const", "attr": {"value": {"tensor": {"dtype": "DT_FLOAT", "tensorShape": {"dim": [{"size": "512"}, {"size": "128"}]}}}, "dtype": {"type": "DT_FLOAT"}}}, {"name": "bert/encoder/layer_19/output/dense/bias", "op": "Const", "attr": {"value": {"tensor": {"dtype": "DT_FLOAT", "tensorShape": {"dim": [{"size": "128"}]}}}, "dtype": {"type": "DT_FLOAT"}}}, {"name": "bert/encoder/layer_19/output/strided_slice_2/stack", "op": "Const", "attr": {"value": {"tensor": {"dtype": "DT_INT32", "tensorShape": {"dim": [{"size": "1"}]}}}, "dtype": {"type": "DT_INT32"}}}, {"name": "bert/encoder/layer_19/output/strided_slice_2/stack_1", "op": "Const", "attr": {"dtype": {"type": "DT_INT32"}, "value": {"tensor": {"dtype": "DT_INT32", "tensorShape": {"dim": [{"size": "1"}]}}}}}, {"name": "bert/encoder/layer_19/output/strided_slice_2/stack_2", "op": "Const", "attr": {"value": {"tensor": {"dtype": "DT_INT32", "tensorShape": {"dim": [{"size": "1"}]}}}, "dtype": {"type": "DT_INT32"}}}, {"name": "bert/encoder/layer_19/intermediate/dense/Reshape/shape/1", "op": "Const", "attr": {"value": {"tensor": {"dtype": "DT_INT32", "tensorShape": {}}}, "dtype": {"type": "DT_INT32"}}}, {"name": "bert/encoder/layer_19/intermediate/dense/kernel", "op": "Const", "attr": {"value": {"tensor": …
er/layer_2/attention/self/strided_slice_9/stack_2", "shape": [1], "dtype": "int32"}, {"name": "bert/encoder/layer_2/attention/self/value/Reshape_1/shape/2", "shape": [], "dtype": "int32"}, {"name": "bert/encoder/layer_2/attention/self/value/Reshape_1/shape/3", "shape": [], "dtype": "int32"}, {"name": "bert/encoder/layer_2/attention/self/transpose_2/perm", "shape": [4], "dtype": "int32"}, {"name": "bert/encoder/layer_2/attention/self/transpose_3/perm", "shape": [4], "dtype": "int32"}, {"name": "bert/encoder/layer_2/attention/output/strided_slice_3/stack", "shape": [1], "dtype": "int32"}, {"name": "bert/encoder/layer_2/attention/output/strided_slice_3/stack_1", "shape": [1], "dtype": "int32"}, {"name": "bert/encoder/layer_2/attention/output/strided_slice_3/stack_2", "shape": [1], "dtype": "int32"}, {"name": "bert/encoder/layer_2/attention/output/dense/Reshape_1/shape/2", "shape": [], "dtype": "int32"}, {"name": "bert/encoder/layer_2/bottleneck/input/dense/Reshape/shape/1", "shape": [], "dtype": "int32"}, {"name": "bert/encoder/layer_2/bottleneck/input/dense/kernel", "shape": [512, 128], "dtype": "float32"}, {"name": "bert/encoder/layer_2/bottleneck/input/dense/bias", "shape": [128], "dtype": "float32"}, {"name": "bert/encoder/layer_2/bottleneck/input/strided_slice_2/stack", "shape": [1], "dtype": "int32"}, {"name": "bert/encoder/layer_2/bottleneck/input/strided_slice_2/stack_1", "shape": [1], "dtype": "int32"}, {"name": "bert/encoder/layer_2/bottleneck/input/strided_slice_2/stack_2", "shape": [1], "dtype": "int32"}, {"name": "bert/encoder/layer_2/bottleneck/input/strided_slice_3/stack", "shape": [1], "dtype": "int32"}, {"name": "bert/encoder/layer_2/bottleneck/input/strided_slice_3/stack_1", "shape": [1], "dtype": "int32"}, {"name": "bert/encoder/layer_2/bottleneck/input/strided_slice_3/stack_2", "shape": [1], "dtype": "int32"}, {"name": "bert/encoder/layer_2/bottleneck/input/dense/Reshape_1/shape/2", "shape": [], "dtype": "int32"}, {"name": "bert/encoder/layer_2/bottleneck/input/FakeLayerNorm/gamma", "shape": [128], "dtype": "float32"}, {"name": "bert/encoder/layer_2/bottleneck/input/FakeLayerNorm/beta", "shape": [128], "dtype": "float32"}, {"name": "bert/encoder/layer_2/attention/output/FakeLayerNorm/gamma", "shape": [128], "dtype": "float32"}, {"name": "bert/encoder/layer_2/attention/output/FakeLayerNorm/beta", "shape": [128], "dtype": "float32"}, {"name": "bert/encoder/layer_2/ffn_layer_0/output/FakeLayerNorm/gamma", "shape": [128], "dtype": "float32"}, {"name": "bert/encoder/layer_2/ffn_layer_0/output/FakeLayerNorm/beta", "shape": [128], "dtype": "float32"}, {"name": "bert/encoder/layer_2/ffn_layer_1/output/FakeLayerNorm/gamma", "shape": [128], "dtype": "float32"}, {"name": "bert/encoder/layer_2/ffn_layer_1/output/FakeLayerNorm/beta", "shape": [128], "dtype": "float32"}, {"name": "bert/encoder/layer_2/ffn_layer_2/output/FakeLayerNorm/gamma", "shape": [128], "dtype": "float32"}, {"name": "bert/encoder/layer_2/ffn_layer_2/output/FakeLayerNorm/beta", "shape": [128], "dtype": "float32"}, {"name": "bert/encoder/layer_2/output/FakeLayerNorm/gamma", "shape": [128], "dtype": "float32"}, {"name": "bert/encoder/layer_2/output/FakeLayerNorm/beta", "shape": [128], "dtype": "float32"}, {"name": "bert/encoder/layer_2/output/bottleneck/strided_slice_3/stack", "shape": [1], "dtype": "int32"}, {"name": "bert/encoder/layer_2/output/bottleneck/strided_slice_3/stack_1", "shape": [1], "dtype": "int32"}, {"name": "bert/encoder/layer_2/output/bottleneck/strided_slice_3/stack_2", "shape": [1], "dtype": "int32"}, {"name": "bert/encoder/layer_2/output/bottleneck/dense/Reshape_1/shape/2", "shape": [], "dtype": "int32"}, {"name": "bert/encoder/layer_1/output/bottleneck/dense/Reshape/shape/1", "shape": [], "dtype": "int32"}, {"name": "bert/encoder/layer_1/output/bottleneck/dense/kernel", "shape": [128, 512], "dtype": "float32"}, {"name": "bert/encoder/layer_1/output/bottleneck/dense/bias", "shape": [512], "dtype": "float32"}, {"name": "bert/encoder/layer_1/output/bottleneck/strided_slice_2/stack", "shape": [1], "dtype": "int32"}, {"name": "bert/encoder/layer_1/output/bottleneck/strided_slice_2/stack_1", "shape": [1], "dtype": "int32"}, {"name": "bert/encoder/layer_1/output/bottleneck/strided_slice_2/stack_2", "shape": [1], "dtype": "int32"}, {"name": "bert/encoder/layer_1/output/dense/kernel", "shape": [512, 128], "dtype": "float32"}, {"name": "bert/encoder/layer_1/output/dense/bias", "shape": [128], "dtype": "float32"}, {"name": "bert/encoder/layer_1/output/strided_slice_2/stack", "shape": [1], "dtype": "int32"}, {"name": "bert/encoder/layer_1/output/strided_slice_2/stack_1", "shape": [1], "dtype": "int32"}, {"name": "bert/encoder/layer_1/output/strided_slice_2/stack_2", "shape": [1], "dtype": "int32"}, {"name": "bert/encoder/layer_1/intermediate/dense/Reshape/shape/1", "shape": [], "dtype": "int32"}, {"name": "bert/encoder/layer_1/intermediate/dense/kernel", "shape": [128, 512], "dtype": "float32"}, {"name": "bert/encoder/layer_1/intermediate/dense/bias", "shape": [512], "dtype": "float32"}, {"name": "bert/encoder/layer_1/intermediate/strided_slice_2/stack", "shape": [1], "dtype": "int32"}, {"name": "bert/encoder/layer_1/intermediate/strided_slice_2/stack_1", "shape": [1], "dtype": "int32"}, {"name": "bert/encoder/layer_1/intermediate/strided_slice_2/stack_2", "shape": [1], "dtype": "int32"}, {"name": "bert/encoder/layer_1/intermediate/strided_slice_3/stack", "shape": [1], "dtype": "int32"}, {"name": "bert/encoder/layer_1/intermediate/strided_slice_3/stack_1", "shape": [1], "dtype": "int32"}, {"name": "bert/encoder/layer_1/intermediate/strided_slice_3/stack_2", "shape": [1], "dtype": "int32"}, {"name": "bert/encoder/layer_1/intermediate/dense/Reshape_1/shape/2", "shape": [], "dtype": "int32"}, {"name": "bert/encoder/layer_1/output/strided_slice_3/stack", "shape": [1], "dtype": "int32"}, {"name": "bert/encoder/layer_1/output/strided_slice_3/stack_1", "shape": [1], "dtype": "int32"}, {"name": "bert/encoder/layer_1/output/strided_slice_3/stack_2", "shape": [1], "dtype": "int32"}, {"name": "bert/encoder/layer_1/output/dense/Reshape_1/shape/2", "shape": [], "dtype": "int32"}, {"name": "bert/encoder/layer_1/ffn_layer_2/output/dense/kernel", "shape": [512, 128], "dtype": "float32"}, {"name": "bert/encoder/layer_1/ffn_layer_2/output/dense/bias", "shape": [128], "dtype": "float32"}, {"name": "bert/encoder/layer_1/ffn_layer_2/output/strided_slice_2/stack", "shape": [1], "dtype": "int32"}, {"name": "bert/encoder/layer_1/ffn_layer_2/output/strided_slice_2/stack_1", "shape": [1], "dtype": "int32"}, {"name": "bert/encoder/layer_1/ffn_layer_2/output/strided_slice_2/stack_2", "shape": [1], "dtype": "int32"}, {"name": "bert/encoder/layer_1/ffn_layer_2/intermediate/dense/Reshape/shape/1", "shape": [], "dtype": "int32"}, {"name": "bert/encoder/layer_1/ffn_layer_2/intermediate/dense/kernel", "shape": [128, 512], "dtype": "float32"}, {"name": "bert/encoder/layer_1/ffn_layer_2/intermediate/dense/bias", "shape": [512], "dtype": "float32"}, {"name": "bert/encoder/layer_1/ffn_layer_2/intermediate/strided_slice_2/stack", "shape": [1], "dtype": "int32"}, {"name": "bert/encoder/layer_1/ffn_layer_2/intermediate/strided_slice_2/stack_1", "shape": [1], "dtype": "int32"}, {"name": "bert/encoder/layer_1/ffn_layer_2/intermediate/strided_slice_2/stack_2", "shape": [1], "dtype": "int32"}, {"name": "bert/encoder/layer_1/ffn_layer_2/intermediate/strided_slice_3/stack", "shape": [1], "dtype": "int32"}, {"name": "bert/encoder/layer_1/ffn_layer_2/intermediate/strided_slice_3/stack_1", "shape": [1], "dtype": "int32"}, {"name": "bert/encoder/layer_1/ffn_layer_2/intermediate/strided_slice_3/stack_2", "shape": [1], "dtype": "int32"}, {"name": "bert/encoder/layer_1/ffn_layer_2/intermediate/dense/Reshape_1/shape/2", "shape": [], "dtype": "int32"}, {"name": "bert/encoder/layer_1/ffn_layer_2/output/strided_slice_3/stack", "shape": [1], "dtype": "int32"}, {"name": "bert/encoder/layer_1/ffn_layer_2/output/strided_slice_3/stack_1", "shape": [1], "dtype": "int32"}, {"name": "bert/encoder/layer_1/ffn_layer_2/output/strided_slice_3/stack_2", "shape": [1], "dtype": "int32"}, {"name": "bert/encoder/layer_1/ffn_layer_2/output/dense/Reshape_1/shape/2", "shape": [], "dtype": "int32"}, {"name": "bert/encoder/layer_1/ffn_layer_1/output/dense/kernel", "shape": [512, 128], "dtype": "float32"}, {"name": "bert/encoder/layer_1/ffn_layer_1/output/dense/bias", "shape": [128], "dtype": "float32"}, {"name": "bert/encoder/layer_1/ffn_layer_1/output/strided_slice_2/stack", "shape": [1], "dtype": "int32"}, {"name": "bert/encoder/layer_1/ffn_layer_1/output/strided_slice_2/stack_1", "shape": [1], "dtype": "int32"}, {"name": "bert/encoder/layer_1/ffn_layer_1/output/strided_slice_2/stack_2", "shape": [1], "dtype": "int32"}, {"name": "bert/encoder/layer_1/ffn_layer_1/intermediate/dense/Reshape/shape/1", "shape": [], "dtype": "int32"}, {"name": "bert/encoder/layer_1/ffn_layer_1/intermediate/dense/kernel", "shape": [128, 512], "dtype": "float32"}, {"name": "bert/encoder/layer_1/ffn_layer_1/intermediate/dense/bias", "shape": [512], "dtype": "float32"}, {"name": "bert/encoder/layer_1/ffn_layer_1/intermediate/strided_slice_2/stack", "shape": [1], "dtype": "int32"}, {"name": "bert/encoder/layer_1/ffn_layer_1/intermediate/strided_slice_2/stack_1", "shape": [1], "dtype": "int32"}, {"name": "bert/encoder/layer_1/ffn_layer_1/intermediate/strided_slice_2/stack_2", "shape": [1], "dtype": "int32"}, {"name": "bert/encoder/layer_1/ffn_layer_1/intermediate/strided_slice_3/stack", "shape": [1], "dtype": "int32"}, {"name": "bert/encoder/layer_1/ffn_layer_1/intermediate/strided_slice_3/stack_1", "shape": [1], "dtype": "int32"}, {"name": "bert/encoder/layer_1/ffn_layer_1/intermediate/strided_slice_3/stack_2", "shape": [1], "dtype": "int32"}, {"name": "bert/encoder/layer_1/ffn_layer_1/intermediate/dense/Reshape_1/shape/2", "shape": [], "dtype": "int32"}, {"name": "bert/encoder/layer_1/ffn_layer_1/output/strided_slice_3/stack", "shape": [1], "dtype": "int32"}, {"name": "bert/encoder/layer_1/ffn_layer_1/output/strided_slice_3/stack_1", "shape": [1], "dtype": "int32"}, {"name": "bert/encoder/layer_1/ffn_layer_1/output/strided_slice_3/stack_2", "shape": [1], "dtype": "int32"}, {"name": "bert/encoder/layer_1/ffn_layer_1/output/dense/Reshape_1/shape/2", "shape": [], "dtype": "int32"}, {"name": "bert/encoder/layer_1/ffn_layer_0/output/dense/kernel", "shape": [512, 128], "dtype": "float32"}, {"name": "bert/encoder/layer_1/ffn_layer_0/output/dense/bias", "shape": [128], "dtype": "float32"}, {"name": "bert/encoder/layer_1/ffn_layer_0/output/strided_slice_2/stack", "shape": [1], "dtype": "int32"}, {"name": "bert/encoder/layer_1/ffn_layer_0/output/strided_slice_2/stack_1", "shape": [1], "dtype": "int32"}, {"name": "bert/encoder/layer_1/ffn_layer_0/output/strided_slice_2/stack_2", "shape": [1], "dtype": "int32"}, {"name": "bert/encoder/layer_1/ffn_layer_0/intermediate/dense/Reshape/shape/1", "shape": [], "dtype": "int32"}, {"name": "bert/encoder/layer_1/ffn_layer_0/intermediate/dense/kernel", "shape": [128, 512], "dtype": "float32"}, {"name": "bert/encoder/layer_1/ffn_layer_0/intermediate/dense/bias", "shape": [512], "dtype": "float32"}, {"name": "bert/encoder/layer_1/ffn_layer_0/intermediate/strided_slice_2/stack", "shape": [1], "dtype": "int32"}, {"name": "bert/encoder/layer_1/ffn_layer_0/intermediate/strided_slice_2/stack_1", "shape": [1], "dtype": "int32"}, {"name": "bert/encoder/layer_1/ffn_layer_0/intermediate/strided_slice_2/stack_2", "shape": [1], "dtype": "int32"}, {"name": "bert/encoder/layer_1/ffn_layer_0/intermediate/strided_slice_3/stack", "shape": [1], "dtype": "int32"}, {"name": "bert/encoder/layer_1/ffn_layer_0/intermediate/strided_slice_3/stack_1", "shape": [1], "dtype": "int32"}, {"name": "bert/encoder/layer_1/ffn_layer_0/intermediate/strided_slice_3/stack_2", "shape": [1], "dtype": "int32"}, {"name": "bert/encoder/layer_1/ffn_layer_0/intermediate/dense/Reshape_1/shape/2", "shape": [], "dtype": "int32"}, {"name": "bert/encoder/layer_1/ffn_layer_0/output/strided_slice_3/stack", "shape": [1], "dtype": "int32"}, {"name": "bert/encoder/layer_1/ffn_layer_0/output/strided_slice_3/stack_1", "shape": [1], "dtype": "int32"}, {"name": "bert/encoder/layer_1/ffn_layer_0/output/strided_slice_3/stack_2", "shape": [1], "dtype": "int32"}, {"name": "bert/encoder/layer_1/ffn_layer_0/output/dense/Reshape_1/shape/2", "shape": [], "dtype": "int32"}, {"name": "bert/encoder/layer_1/attention/output/dense/Reshape/shape/1", "shape": [], "dtype": "int32"}, {"name": "bert/encoder/layer_1/attention/output/dense/kernel", "shape": [128, 128], "dtype": "float32"}, {"name": "bert/encoder/layer_1/attention/output/dense/bias", "shape": [128], "dtype": "float32"}, {"name": "bert/encoder/layer_1/attention/output/strided_slice/stack", "shape": [1], "dtype": "int32"}, {"name": "bert/encoder/layer_1/attention/output/strided_slice/stack_1", "shape": [1], "dtype": "int32"}, {"name": "bert/encoder/layer_1/attention/output/strided_slice/stack_2", "shape": [1], "dtype": "int32"}, {"name": "bert/encoder/layer_1/attention/self/dropout/Const", "shape": [], "dtype": "float32"}, {"name": "bert/encoder/layer_1/attention/self/query/Reshape/shape/1", "shape": [], "dtype": "int32"}, {"name": "bert/encoder/layer_1/attention/self/query/kernel", "shape": [128, 128], "dtype": "float32"}, {"name": "bert/encoder/layer_1/attention/self/query/bias", "shape": [128], "dtype": "float32"}, {"name": "bert/encoder/layer_1/attention/self/strided_slice_4/stack", "shape": [1], "dtype": "int32"}, {"name": "bert/encoder/layer_1/attention/self/strided_slice_4/stack_1", "shape": [1], "dtype": "int32"}, {"name": "bert/encoder/layer_1/attention/self/strided_slice_4/stack_2", "shape": [1], "dtype": "int32"}, {"name": "bert/encoder/layer_1/attention/self/strided_slice_5/stack", "shape": [1], "dtype": "int32"}, {"name": "bert/encoder/layer_1/attention/self/strided_slice_5/stack_1", "shape": [1], "dtype": "int32"}, {"name": "bert/encoder/layer_1/attention/self/strided_slice_5/stack_2", "shape": [1], "dtype": "int32"}, {"name": "bert/encoder/layer_1/attention/self/query/Reshape_1/shape/2", "shape": [], "dtype": "int32"}, {"name": "bert/encoder/layer_1/attention/self/query/Reshape_1/shape/3", "shape": [], "dtype": "int32"}, {"name": "bert/encoder/layer_1/attention/self/transpose/perm", "shape": [4], "dtype": "int32"}, {"name": "bert/encoder/layer_1/attention/self/key/Reshape/shape/1", "shape": [], "dtype": "int32"}, {"name": "bert/encoder/layer_1/attention/self/key/kernel", "shape": [128, 128], "dtype": "float32"}, {"name": "bert/encoder/layer_1/attention/self/key/bias", "shape": [128], "dtype": "float32"}, {"name": "bert/encoder/layer_1/attention/self/strided_slice_6/stack", "shape": [1], "dtype": "int32"}, {"name": "bert/encoder/layer_1/attention/self/strided_slice_6/stack_1", "shape": [1], "dtype": "int32"}, {"name": "bert/encoder/layer_1/attention/self/strided_slice_6/stack_2", "shape": [1], "dtype": "int32"}, {"name": "bert/encoder/layer_1/bottleneck/attention/dense/Tensordot/Const", "shape": [1], "dtype": "int32"}, {"name": "bert/encoder/layer_1/bottleneck/attention/dense/Tensordot/axes", "shape": [1], "dtype": "int32"}, {"name": "bert/encoder/layer_1/bottleneck/attention/dense/Tensordot/GatherV2_1/axis", "shape": [], "dtype": "int32"}, {"name": "bert/encoder/layer_1/bottleneck/attention/dense/Tensordot/Const_1", "shape": [1], "dtype": "int32"}, {"name": "bert/encoder/layer_1/bottleneck/attention/dense/kernel", "shape": [512, 128], "dtype": "float32"}, {"name": "bert/encoder/layer_1/bottleneck/attention/dense/Tensordot/free", "shape": [2], "dtype": "int32"}, {"name": "bert/encoder/layer_1/bottleneck/attention/dense/Tensordot/GatherV2/axis", "shape": [], "dtype": "int32"}, {"name": "bert/encoder/layer_1/bottleneck/attention/dense/Tensordot/Const_2", "shape": [1], "dtype": "int32"}, {"name": "bert/encoder/layer_1/bottleneck/attention/dense/Tensordot/concat_1/axis", "shape": [], "dtype": "int32"}, {"name": "bert/encoder/layer_1/bottleneck/attention/dense/bias", "shape": [128], "dtype": "float32"}, {"name": "bert/encoder/layer_1/bottleneck/attention/FakeLayerNorm/gamma", "shape": [128], "dtype": "float32"}, {"name": "bert/encoder/layer_1/bottleneck/attention/FakeLayerNorm/beta", "shape": [128], "dtype": "float32"}, {"name": "bert/encoder/layer_1/attention/self/strided_slice_7/stack", "shape": [1], "dtype": "int32"}, {"name": "bert/encoder/layer_1/attention/self/strided_slice_7/stack_1", "shape": [1], "dtype": "int32"}, {"name": "bert/encoder/layer_1/attention/self/strided_slice_7/stack_2", "shape": [1], "dtype": "int32"}, {"name": "bert/encoder/layer_1/attention/self/key/Reshape_1/shape/2", "shape": [], "dtype": "int32"}, {"name": "bert/encoder/layer_1/attention/self/key/Reshape_1/shape/3", "shape": [], "dtype": "int32"}, {"name": "bert/encoder/layer_1/attention/self/transpose_1/perm", "shape": [4], "dtype": "int32"}, {"name": "bert/encoder/layer_1/attention/self/Mul/y", "shape": [], "dtype": "float32"}, {"name": "bert/encoder/layer_1/attention/self/Add/x", "shape": [], "dtype": "float32"}, {"name": "bert/encoder/layer_1/attention/self/ExpandDims/dim", "shape": [1], "dtype": "int32"}, {"name": "bert/encoder/layer_1/attention/self/mul_1/y", "shape": [], "dtype": "float32"}, {"name": "bert/encoder/layer_1/attention/self/dropout/GreaterEqual/y", "shape": [], "dtype": "float32"}, {"name": "bert/encoder/layer_1/attention/self/value/Reshape/shape/1", "shape": [], "dtype": "int32"}, {"name": "bert/encoder/layer_1/attention/self/value/kernel", "shape": [512, 128], "dtype": "float32"}, {"name": "bert/encoder/layer_1/attention/self/value/bias", "shape": [128], "dtype": "float32"}, {"name": "bert/encoder/layer_1/attention/self/strided_slice_8/stack", "shape": [1], "dtype": "int32"}, {"name": "bert/encoder/layer_1/attention/self/strided_slice_8/stack_1", "shape": [1], "dtype": "int32"}, {"name": "bert/encoder/layer_1/attention/self/strided_slice_8/stack_2", "shape": [1], "dtype": "int32"}, {"name": "bert/encoder/layer_1/attention/self/strided_slice_9/stack", "shape": [1], "dtype": "int32"}, {"name": "bert/encoder/layer_1/attention/self/strided_slice_9/stack_1", "shape": [1], "dtype": "int32"}, {"name": "bert/encoder/layer_1/attention/self/strided_slice_9/stack_2", "shape": [1], "dtype": "int32"}, {"name": "bert/encoder/layer_1/attention/self/value/Reshape_1/shape/2", "shape": [], "dtype": "int32"}, {"name": "bert/encoder/layer_1/attention/self/value/Reshape_1/shape/3", "shape": [], "dtype": "int32"}, {"name": "bert/encoder/layer_1/attention/self/transpose_2/perm", "shape": [4], "dtype": "int32"}, {"name": "bert/encoder/layer_1/attention/self/transpose_3/perm", "shape": [4], "dtype": "int32"}, {"name": "bert/encoder/layer_1/attention/output/strided_slice_3/stack", "shape": [1], "dtype": "int32"}, {"name": "bert/encoder/layer_1/attention/output/strided_slice_3/stack_1", "shape": [1], "dtype": "int32"}, {"name": "bert/encoder/layer_1/attention/output/strided_slice_3/stack_2", "shape": [1], "dtype": "int32"}, {"name": "bert/encoder/layer_1/attention/output/dense/Reshape_1/shape/2", "shape": [], "dtype": "int32"}, {"name": "bert/encoder/layer_1/bottleneck/input/dense/Reshape/shape/1", "shape": [], "dtype": "int32"}, {"name": "bert/encoder/layer_1/bottleneck/input/dense/kernel", "shape": [512, 128], "dtype": "float32"}, {"name": "bert/encoder/layer_1/bottleneck/input/dense/bias", "shape": [128], "dtype": "float32"}, {"name": "bert/encoder/layer_1/bottleneck/input/strided_slice_2/stack", "shape": [1], "dtype": "int32"}, {"name": "bert/encoder/layer_1/bottleneck/input/strided_slice_2/stack_1", "shape": [1], "dtype": "int32"}, {"name": "bert/encoder/layer_1/bottleneck/input/strided_slice_2/stack_2", "shape": [1], "dtype": "int32"}, {"name": "bert/encoder/layer_1/bottleneck/input/strided_slice_3/stack", "shape": [1], "dtype": "int32"}, {"name": "bert/encoder/layer_1/bottleneck/input/strided_slice_3/stack_1", "shape": [1], "dtype": "int32"}, {"name": "bert/encoder/layer_1/bottleneck/input/strided_slice_3/stack_2", "shape": [1], "dtype": "int32"}, {"name": "bert/encoder/layer_1/bottleneck/input/dense/Reshape_1/shape/2", "shape": [], "dtype": "int32"}, {"name": "bert/encoder/layer_1/bottleneck/input/FakeLayerNorm/gamma", "shape": [128], "dtype": "float32"}, {"name": "bert/encoder/layer_1/bottleneck/input/FakeLayerNorm/beta", "shape": [128], "dtype": "float32"}, {"name": "bert/encoder/layer_1/attention/output/FakeLayerNorm/gamma", "shape": [128], "dtype": "float32"}, {"name": "bert/encoder/layer_1/attention/output/FakeLayerNorm/beta", "shape": [128], "dtype": "float32"}, {"name": "bert/encoder/layer_1/ffn_layer_0/output/FakeLayerNorm/gamma", "shape": [128], "dtype": "float32"}, {"name": "bert/encoder/layer_1/ffn_layer_0/output/FakeLayerNorm/beta", "shape": [128], "dtype": "float32"}, {"name": "bert/encoder/layer_1/ffn_layer_1/output/FakeLayerNorm/gamma", "shape": [128], "dtype": "float32"}, {"name": "bert/encoder/layer_1/ffn_layer_1/output/FakeLayerNorm/beta", "shape": [128], "dtype": "float32"}, {"name": "bert/encoder/layer_1/ffn_layer_2/output/FakeLayerNorm/gamma", "shape": [128], "dtype": "float32"}, {"name": "bert/encoder/layer_1/ffn_layer_2/output/FakeLayerNorm/beta", "shape": [128], "dtype": "float32"}, {"name": "bert/encoder/layer_1/output/FakeLayerNorm/gamma", "shape": [128], "dtype": "float32"}, {"name": "bert/encoder/layer_1/output/FakeLayerNorm/beta", "shape": [128], "dtype": "float32"}, {"name": "bert/encoder/layer_1/output/bottleneck/strided_slice_3/stack", "shape": [1], "dtype": "int32"}, {"name": "bert/encoder/layer_1/output/bottleneck/strided_slice_3/stack_1", "shape": [1], "dtype": "int32"}, {"name": "bert/encoder/layer_1/output/bottleneck/strided_slice_3/stack_2", "shape": [1], "dtype": "int32"}, {"name": "bert/encoder/layer_1/output/bottleneck/dense/Reshape_1/shape/2", "shape": [], "dtype": "int32"}, {"name": "bert/encoder/layer_0/output/bottleneck/dense/Reshape/shape/1", "shape": [], "dtype": "int32"}, {"name": "bert/encoder/layer_0/output/bottleneck/dense/kernel", "shape": [128, 512], "dtype": "float32"}, {"name": "bert/encoder/layer_0/output/bottleneck/dense/bias", "shape": [512], "dtype": "float32"}, {"name": "bert/encoder/layer_0/output/bottleneck/strided_slice_2/stack", "shape": [1], "dtype": "int32"}, {"name": "bert/encoder/layer_0/output/bottleneck/strided_slice_2/stack_1", "shape": [1], "dtype": "int32"}, {"name": "bert/encoder/layer_0/output/bottleneck/strided_slice_2/stack_2", "shape": [1], "dtype": "int32"}, {"name": "bert/encoder/layer_0/output/dense/kernel", "shape": [512, 128], "dtype": "float32"}, {"name": "bert/encoder/layer_0/output/dense/bias", "shape": [128], "dtype": "float32"}, {"name": "bert/encoder/layer_0/output/strided_slice_2/stack", "shape": [1], "dtype": "int32"}, {"name": "bert/encoder/layer_0/output/strided_slice_2/stack_1", "shape": [1], "dtype": "int32"}, {"name": "bert/encoder/layer_0/output/strided_slice_2/stack_2", "shape": [1], "dtype": "int32"}, {"name": "bert/encoder/layer_0/intermediate/dense/Reshape/shape/1", "shape": [], "dtype": "int32"}, {"name": "bert/encoder/layer_0/intermediate/dense/kernel", "shape": [128, 512], "dtype": "float32"}, {"name": "bert/encoder/layer_0/intermediate/dense/bias", "shape": [512], "dtype": "float32"}, {"name": "bert/encoder/layer_0/intermediate/strided_slice_2/stack", "shape": [1], "dtype": "int32"}, {"name": "bert/encoder/layer_0/intermediate/strided_slice_2/stack_1", "shape": [1], "dtype": "int32"}, {"name": "bert/encoder/layer_0/intermediate/strided_slice_2/stack_2", "shape": [1], "dtype": "int32"}, {"name": "bert/encoder/layer_0/intermediate/strided_slice_3/stack", "shape": [1], "dtype": "int32"}, {"name": "bert/encoder/layer_0/intermediate/strided_slice_3/stack_1", "shape": [1], "dtype": "int32"}, {"name": "bert/encoder/layer_0/intermediate/strided_slice_3/stack_2", "shape": [1], "dtype": "int32"}, {"name": "bert/encoder/layer_0/intermediate/dense/Reshape_1/shape/2", "shape": [], "dtype": "int32"}, {"name": "bert/encoder/layer_0/output/strided_slice_3/stack", "shape": [1], "dtype": "int32"}, {"name": "bert/encoder/layer_0/output/strided_slice_3/stack_1", "shape": [1], "dtype": "int32"}, {"name": "bert/encoder/layer_0/output/strided_slice_3/stack_2", "shape": [1], "dtype": "int32"}, {"name": "bert/encoder/layer_0/output/dense/Reshape_1/shape/2", "shape": [], "dtype": "int32"}, {"name": "bert/encoder/layer_0/ffn_layer_2/output/dense/kernel", "shape": [512, 128], "dtype": "float32"}, {"name": "bert/encoder/layer_0/ffn_layer_2/output/dense/bias", "shape": [128], "dtype": "float32"}, {"name": "bert/encoder/layer_0/ffn_layer_2/output/strided_slice_2/stack", "shape": [1], "dtype": "int32"}, {"name": "bert/encoder/layer_0/ffn_layer_2/output/strided_slice_2/stack_1", "shape": [1], "dtype": "int32"}, {"name": "bert/encoder/layer_0/ffn_layer_2/output/strided_slice_2/stack_2", "shape": [1], "dtype": "int32"}, {"name": "bert/encoder/layer_0/ffn_layer_2/intermediate/dense/Reshape/shape/1", "shape": [], "dtype": "int32"}, {"name": "bert/encoder/layer_0/ffn_layer_2/intermediate/dense/kernel", "shape": [128, 512], "dtype": "float32"}, {"name": "bert/encoder/layer_0/ffn_layer_2/intermediate/dense/bias", "shape": [512], "dtype": "float32"}, {"name": "bert/encoder/layer_0/ffn_layer_2/intermediate/strided_slice_2/stack", "shape": [1], "dtype": "int32"}, {"name": "bert/encoder/layer_0/ffn_layer_2/intermediate/strided_slice_2/stack_1", "shape": [1], "dtype": "int32"}, {"name": "bert/encoder/layer_0/ffn_layer_2/intermediate/strided_slice_2/stack_2", "shape": [1], "dtype": "int32"}, {"name": "bert/encoder/layer_0/ffn_layer_2/intermediate/strided_slice_3/stack", "shape": [1], "dtype": "int32"}, {"name": "bert/encoder/layer_0/ffn_layer_2/intermediate/strided_slice_3/stack_1", "shape": [1], "dtype": "int32"}, {"name": "bert/encoder/layer_0/ffn_layer_2/intermediate/strided_slice_3/stack_2", "shape": [1], "dtype": "int32"}, {"name": "bert/encoder/layer_0/ffn_layer_2/intermediate/dense/Reshape_1/shape/2", "shape": [], "dtype": "int32"}, {"name": "bert/encoder/layer_0/ffn_layer_2/output/strided_slice_3/stack", "shape": [1], "dtype": "int32"}, {"name": "bert/encoder/layer_0/ffn_layer_2/output/strided_slice_3/stack_1", "shape": [1], "dtype": "int32"}, {"name": "bert/encoder/layer_0/ffn_layer_2/output/strided_slice_3/stack_2", "shape": [1], "dtype": "int32"}, {"name": "bert/encoder/layer_0/ffn_layer_2/output/dense/Reshape_1/shape/2", "shape": [], "dtype": "int32"}, {"name": "bert/encoder/layer_0/ffn_layer_1/output/dense/kernel", "shape": [512, 128], "dtype": "float32"}, {"name": "bert/encoder/layer_0/ffn_layer_1/output/dense/bias", "shape": [128], "dtype": "float32"}, {"name": "bert/encoder/layer_0/ffn_layer_1/output/strided_slice_2/stack", "shape": [1], "dtype": "int32"}, {"name": "bert/encoder/layer_0/ffn_layer_1/output/strided_slice_2/stack_1", "shape": [1], "dtype": "int32"}, {"name": "bert/encoder/layer_0/ffn_layer_1/output/strided_slice_2/stack_2", "shape": [1], "dtype": "int32"}, {"name": "bert/encoder/layer_0/ffn_layer_1/intermediate/dense/Reshape/shape/1", "shape": [], "dtype": "int32"}, {"name": "bert/encoder/layer_0/ffn_layer_1/intermediate/dense/kernel", "shape": [128, 512], "dtype": "float32"}, {"name": "bert/encoder/layer_0/ffn_layer_1/intermediate/dense/bias", "shape": [512], "dtype": "float32"}, {"name": "bert/encoder/layer_0/ffn_layer_1/intermediate/strided_slice_2/stack", "shape": [1], "dtype": "int32"}, {"name": "bert/encoder/layer_0/ffn_layer_1/intermediate/strided_slice_2/stack_1", "shape": [1], "dtype": "int32"}, {"name": "bert/encoder/layer_0/ffn_layer_1/intermediate/strided_slice_2/stack_2", "shape": [1], "dtype": "int32"}, {"name": "bert/encoder/layer_0/ffn_layer_1/intermediate/strided_slice_3/stack", "shape": [1], "dtype": "int32"}, {"name": "bert/encoder/layer_0/ffn_layer_1/intermediate/strided_slice_3/stack_1", "shape": [1], "dtype": "int32"}, {"name": "bert/encoder/layer_0/ffn_layer_1/intermediate/strided_slice_3/stack_2", "shape": [1], "dtype": "int32"}, {"name": "bert/encoder/layer_0/ffn_layer_1/intermediate/dense/Reshape_1/shape/2", "shape": [], "dtype": "int32"}, {"name": "bert/encoder/layer_0/ffn_layer_1/output/strided_slice_3/stack", "shape": [1], "dtype": "int32"}, {"name": "bert/encoder/layer_0/ffn_layer_1/output/strided_slice_3/stack_1", "shape": [1], "dtype": "int32"}, {"name": "bert/encoder/layer_0/ffn_layer_1/output/strided_slice_3/stack_2", "shape": [1], "dtype": "int32"}, {"name": "bert/encoder/layer_0/ffn_layer_1/output/dense/Reshape_1/shape/2", "shape": [], "dtype": "int32"}, {"name": "bert/encoder/layer_0/ffn_layer_0/output/dense/kernel", "shape": [512, 128], "dtype": "float32"}, {"name": "bert/encoder/layer_0/ffn_layer_0/output/dense/bias", "shape": [128], "dtype": "float32"}, {"name": "bert/encoder/layer_0/ffn_layer_0/output/strided_slice_2/stack", "shape": [1], "dtype": "int32"}, {"name": "bert/encoder/layer_0/ffn_layer_0/output/strided_slice_2/stack_1", "shape": [1], "dtype": "int32"}, {"name": "bert/encoder/layer_0/ffn_layer_0/output/strided_slice_2/stack_2", "shape": [1], "dtype": "int32"}, {"name": "bert/encoder/layer_0/ffn_layer_0/intermediate/dense/Reshape/shape/1", "shape": [], "dtype": "int32"}, {"name": "bert/encoder/layer_0/ffn_layer_0/intermediate/dense/kernel", "shape": [128, 512], "dtype": "float32"}, {"name": "bert/encoder/layer_0/ffn_layer_0/intermediate/dense/bias", "shape": [512], "dtype": "float32"}, {"name": "bert/encoder/layer_0/ffn_layer_0/intermediate/strided_slice_2/stack", "shape": [1], "dtype": "int32"}, {"name": "bert/encoder/layer_0/ffn_layer_0/intermediate/strided_slice_2/stack_1", "shape": [1], "dtype": "int32"}, {"name": "bert/encoder/layer_0/ffn_layer_0/intermediate/strided_slice_2/stack_2", "shape": [1], "dtype": "int32"}, {"name": "bert/encoder/layer_0/ffn_layer_0/intermediate/strided_slice_3/stack", "shape": [1], "dtype": "int32"}, {"name": "bert/encoder/layer_0/ffn_layer_0/intermediate/strided_slice_3/stack_1", "shape": [1], "dtype": "int32"}, {"name": "bert/encoder/layer_0/ffn_layer_0/intermediate/strided_slice_3/stack_2", "shape": [1], "dtype": "int32"}, {"name": "bert/encoder/layer_0/ffn_layer_0/intermediate/dense/Reshape_1/shape/2", "shape": [], "dtype": "int32"}, {"name": "bert/encoder/layer_0/ffn_layer_0/output/strided_slice_3/stack", "shape": [1], "dtype": "int32"}, {"name": "bert/encoder/layer_0/ffn_layer_0/output/strided_slice_3/stack_1", "shape": [1], "dtype": "int32"}, {"name": "bert/encoder/layer_0/ffn_layer_0/output/strided_slice_3/stack_2", "shape": [1], "dtype": "int32"}, {"name": "bert/encoder/layer_0/ffn_layer_0/output/dense/Reshape_1/shape/2", "shape": [], "dtype": "int32"}, {"name": "bert/encoder/layer_0/attention/output/dense/Reshape/shape/1", "shape": [], "dtype": "int32"}, {"name": "bert/encoder/layer_0/attention/output/dense/kernel", "shape": [128, 128], "dtype": "float32"}, {"name": "bert/encoder/layer_0/attention/output/dense/bias", "shape": [128], "dtype": "float32"}, {"name": "bert/encoder/layer_0/attention/output/strided_slice/stack", "shape": [1], "dtype": "int32"}, {"name": "bert/encoder/layer_0/attention/output/strided_slice/stack_1", "shape": [1], "dtype": "int32"}, {"name": "bert/encoder/layer_0/attention/output/strided_slice/stack_2", "shape": [1], "dtype": "int32"}, {"name": "bert/encoder/layer_0/attention/self/dropout/Const", "shape": [], "dtype": "float32"}, {"name": "bert/encoder/layer_0/attention/self/query/Reshape/shape/1", "shape": [], "dtype": "int32"}, {"name": "bert/encoder/layer_0/attention/self/query/kernel", "shape": [128, 128], "dtype": "float32"}, {"name": "bert/encoder/layer_0/attention/self/query/bias", "shape": [128], "dtype": "float32"}, {"name": "bert/encoder/layer_0/attention/self/strided_slice_4/stack", "shape": [1], "dtype": "int32"}, {"name": "bert/encoder/layer_0/attention/self/strided_slice_4/stack_1", "shape": [1], "dtype": "int32"}, {"name": "bert/encoder/layer_0/attention/self/strided_slice_4/stack_2", "shape": [1], "dtype": "int32"}, {"name": "bert/encoder/layer_0/attention/self/strided_slice_5/stack", "shape": [1], "dtype": "int32"}, {"name": "bert/encoder/layer_0/attention/self/strided_slice_5/stack_1", "shape": [1], "dtype": "int32"}, {"name": "bert/encoder/layer_0/attention/self/strided_slice_5/stack_2", "shape": [1], "dtype": "int32"}, {"name": "bert/encoder/layer_0/attention/self/query/Reshape_1/shape/2", "shape": [], "dtype": "int32"}, {"name": "bert/encoder/layer_0/attention/self/query/Reshape_1/shape/3", "shape": [], "dtype": "int32"}, {"name": "bert/encoder/layer_0/attention/self/transpose/perm", "shape": [4], "dtype": "int32"}, {"name": "bert/encoder/layer_0/attention/self/key/Reshape/shape/1", "shape": [], "dtype": "int32"}, {"name": "bert/encoder/layer_0/attention/self/key/kernel", "shape": [128, 128], "dtype": "float32"}, {"name": "bert/encoder/layer_0/attention/self/key/bias", "shape": [128], "dtype": "float32"}, {"name": "bert/encoder/layer_0/attention/self/strided_slice_6/stack", "shape": [1], "dtype": "int32"}, {"name": "bert/encoder/layer_0/attention/self/strided_slice_6/stack_1", "shape": [1], "dtype": "int32"}, {"name": "bert/encoder/layer_0/attention/self/strided_slice_6/stack_2", "shape": [1], "dtype": "int32"}, {"name": "bert/encoder/layer_0/bottleneck/attention/dense/Tensordot/Const", "shape": [1], "dtype": "int32"}, {"name": "bert/encoder/layer_0/bottleneck/attention/dense/Tensordot/axes", "shape": [1], "dtype": "int32"}, {"name": "bert/encoder/layer_0/bottleneck/attention/dense/Tensordot/GatherV2_1/axis", "shape": [], "dtype": "int32"}, {"name": "bert/encoder/layer_0/bottleneck/attention/dense/Tensordot/Const_1", "shape": [1], "dtype": "int32"}, {"name": "bert/encoder/layer_0/bottleneck/attention/dense/kernel", "shape": [512, 128], "dtype": "float32"}, {"name": "bert/encoder/layer_0/bottleneck/attention/dense/Tensordot/free", "shape": [2], "dtype": "int32"}, {"name": "bert/encoder/layer_0/bottleneck/attention/dense/Tensordot/GatherV2/axis", "shape": [], "dtype": "int32"}, {"name": "bert/encoder/layer_0/bottleneck/attention/dense/Tensordot/Const_2", "shape": [1], "dtype": "int32"}, {"name": "bert/encoder/layer_0/bottleneck/attention/dense/Tensordot/concat_1/axis", "shape": [], "dtype": "int32"}, {"name": "bert/encoder/layer_0/bottleneck/attention/dense/bias", "shape": [128], "dtype": "float32"}, {"name": "bert/encoder/layer_0/bottleneck/attention/FakeLayerNorm/gamma", "shape": [128], "dtype": "float32"}, {"name": "bert/encoder/layer_0/bottleneck/attention/FakeLayerNorm/beta", "shape": [128], "dtype": "float32"}, {"name": "bert/encoder/layer_0/attention/self/strided_slice_7/stack", "shape": [1], "dtype": "int32"}, {"name": "bert/encoder/layer_0/attention/self/strided_slice_7/stack_1", "shape": [1], "dtype": "int32"}, {"name": "bert/encoder/layer_0/attention/self/strided_slice_7/stack_2", "shape": [1], "dtype": "int32"}, {"name": "bert/encoder/layer_0/attention/self/key/Reshape_1/shape/2", "shape": [], "dtype": "int32"}, {"name": "bert/encoder/layer_0/attention/self/key/Reshape_1/shape/3", "shape": [], "dtype": "int32"}, {"name": "bert/encoder/layer_0/attention/self/transpose_1/perm", "shape": [4], "dtype": "int32"}, {"name": "bert/encoder/layer_0/attention/self/Mul/y", "shape": [], "dtype": "float32"}, {"name": "bert/encoder/layer_0/attention/self/Add/x", "shape": [], "dtype": "float32"}, {"name": "bert/encoder/strided_slice_1/stack", "shape": [1], "dtype": "int32"}, {"name": "bert/encoder/strided_slice_1/stack_1", "shape": [1], "dtype": "int32"}, {"name": "bert/encoder/strided_slice_1/stack_2", "shape": [1], "dtype": "int32"}, {"name": "bert/encoder/ones/packed/2", "shape": [], "dtype": "int32"}, {"name": "bert/encoder/ones/Const", "shape": [], "dtype": "float32"}, {"name": "bert/encoder/strided_slice/stack", "shape": [1], "dtype": "int32"}, {"name": "bert/encoder/strided_slice/stack_1", "shape": [1], "dtype": "int32"}, {"name": "bert/encoder/strided_slice/stack_2", "shape": [1], "dtype": "int32"}, {"name": "bert/encoder/Reshape/shape/1", "shape": [], "dtype": "int32"}, {"name": "bert/encoder/strided_slice_3/stack", "shape": [1], "dtype": "int32"}, {"name": "bert/encoder/strided_slice_3/stack_1", "shape": [1], "dtype": "int32"}, {"name": "bert/encoder/strided_slice_3/stack_2", "shape": [1], "dtype": "int32"}, {"name": "bert/encoder/layer_0/attention/self/ExpandDims/dim", "shape": [1], "dtype": "int32"}, {"name": "bert/encoder/layer_0/attention/self/mul_1/y", "shape": [], "dtype": "float32"}, {"name": "bert/encoder/layer_0/attention/self/dropout/GreaterEqual/y", "shape": [], "dtype": "float32"}, {"name": "bert/encoder/layer_0/attention/self/value/Reshape/shape/1", "shape": [], "dtype": "int32"}, {"name": "bert/encoder/layer_0/attention/self/value/kernel", "shape": [512, 128], "dtype": "float32"}, {"name": "bert/encoder/layer_0/attention/self/value/bias", "shape": [128], "dtype": "float32"}, {"name": "bert/encoder/layer_0/attention/self/strided_slice_8/stack", "shape": [1], "dtype": "int32"}, {"name": "bert/encoder/layer_0/attention/self/strided_slice_8/stack_1", "shape": [1], "dtype": "int32"}, {"name": "bert/encoder/layer_0/attention/self/strided_slice_8/stack_2", "shape": [1], "dtype": "int32"}, {"name": "bert/encoder/layer_0/attention/self/strided_slice_9/stack", "shape": [1], "dtype": "int32"}, {"name": "bert/encoder/layer_0/attention/self/strided_slice_9/stack_1", "shape": [1], "dtype": "int32"}, {"name": "bert/encoder/layer_0/attention/self/strided_slice_9/stack_2", "shape": [1], "dtype": "int32"}, {"name": "bert/encoder/layer_0/attention/self/value/Reshape_1/shape/2", "shape": [], "dtype": "int32"}, {"name": "bert/encoder/layer_0/attention/self/value/Reshape_1/shape/3", "shape": [], "dtype": "int32"}, {"name": "bert/encoder/layer_0/attention/self/transpose_2/perm", "shape": [4], "dtype": "int32"}, {"name": "bert/encoder/layer_0/attention/self/transpose_3/perm", "shape": [4], "dtype": "int32"}, {"name": "bert/encoder/layer_0/attention/output/strided_slice_3/stack", "shape": [1], "dtype": "int32"}, {"name": "bert/encoder/layer_0/attention/output/strided_slice_3/stack_1", "shape": [1], "dtype": "int32"}, {"name": "bert/encoder/layer_0/attention/output/strided_slice_3/stack_2", "shape": [1], "dtype": "int32"}, {"name": "bert/encoder/layer_0/attention/output/dense/Reshape_1/shape/2", "shape": [], "dtype": "int32"}, {"name": "bert/encoder/layer_0/bottleneck/input/dense/Reshape/shape/1", "shape": [], "dtype": "int32"}, {"name": "bert/encoder/layer_0/bottleneck/input/dense/kernel", "shape": [512, 128], "dtype": "float32"}, {"name": "bert/encoder/layer_0/bottleneck/input/dense/bias", "shape": [128], "dtype": "float32"}, {"name": "bert/encoder/layer_0/bottleneck/input/strided_slice_2/stack", "shape": [1], "dtype": "int32"}, {"name": "bert/encoder/layer_0/bottleneck/input/strided_slice_2/stack_1", "shape": [1], "dtype": "int32"}, {"name": "bert/encoder/layer_0/bottleneck/input/strided_slice_2/stack_2", "shape": [1], "dtype": "int32"}, {"name": "bert/encoder/layer_0/bottleneck/input/strided_slice_3/stack", "shape": [1], "dtype": "int32"}, {"name": "bert/encoder/layer_0/bottleneck/input/strided_slice_3/stack_1", "shape": [1], "dtype": "int32"}, {"name": "bert/encoder/layer_0/bottleneck/input/strided_slice_3/stack_2", "shape": [1], "dtype": "int32"}, {"name": "bert/encoder/layer_0/bottleneck/input/dense/Reshape_1/shape/2", "shape": [], "dtype": "int32"}, {"name": "bert/encoder/layer_0/bottleneck/input/FakeLayerNorm/gamma", "shape": [128], "dtype": "float32"}, {"name": "bert/encoder/layer_0/bottleneck/input/FakeLayerNorm/beta", "shape": [128], "dtype": "float32"}, {"name": "bert/encoder/layer_0/attention/output/FakeLayerNorm/gamma", "shape": [128], "dtype": "float32"}, {"name": "bert/encoder/layer_0/attention/output/FakeLayerNorm/beta", "shape": [128], "dtype": "float32"}, {"name": "bert/encoder/layer_0/ffn_layer_0/output/FakeLayerNorm/gamma", "shape": [128], "dtype": "float32"}, {"name": "bert/encoder/layer_0/ffn_layer_0/output/FakeLayerNorm/beta", "shape": [128], "dtype": "float32"}, {"name": "bert/encoder/layer_0/ffn_layer_1/output/FakeLayerNorm/gamma", "shape": [128], "dtype": "float32"}, {"name": "bert/encoder/layer_0/ffn_layer_1/output/FakeLayerNorm/beta", "shape": [128], "dtype": "float32"}, {"name": "bert/encoder/layer_0/ffn_layer_2/output/FakeLayerNorm/gamma", "shape": [128], "dtype": "float32"}, {"name": "bert/encoder/layer_0/ffn_layer_2/output/FakeLayerNorm/beta", "shape": [128], "dtype": "float32"}, {"name": "bert/encoder/layer_0/output/FakeLayerNorm/gamma", "shape": [128], "dtype": "float32"}, {"name": "bert/encoder/layer_0/output/FakeLayerNorm/beta", "shape": [128], "dtype": "float32"}, {"name": "bert/encoder/layer_0/output/bottleneck/strided_slice_3/stack", "shape": [1], "dtype": "int32"}, {"name": "bert/encoder/layer_0/output/bottleneck/strided_slice_3/stack_1", "shape": [1], "dtype": "int32"}, {"name": "bert/encoder/layer_0/output/bottleneck/strided_slice_3/stack_2", "shape": [1], "dtype": "int32"}, {"name": "bert/encoder/layer_0/output/bottleneck/dense/Reshape_1/shape/2", "shape": [], "dtype": "int32"}, {"name": "bert/embeddings/token_type_embeddings", "shape": [2, 512], "dtype": "float32"}, {"name": "bert/embeddings/embedding_lookup_1/axis", "shape": [], "dtype": "int32"}, {"name": "bert/embeddings/position_embeddings", "shape": [512, 512], "dtype": "float32"}, {"name": "bert/embeddings/embedding_transformation/Reshape/shape/1", "shape": [], "dtype": "int32"}, {"name": "bert/embeddings/embedding_transformation/kernel", "shape": [384, 512], "dtype": "float32"}, {"name": "bert/embeddings/embedding_transformation/bias", "shape": [512], "dtype": "float32"}, {"name": "bert/embeddings/strided_slice_6/stack", "shape": [1], "dtype": "int32"}, {"name": "bert/embeddings/strided_slice_6/stack_1", "shape": [1], "dtype": "int32"}, {"name": "bert/embeddings/strided_slice_6/stack_2", "shape": [1], "dtype": "int32"}, {"name": "bert/embeddings/strided_slice_2/stack", "shape": [2], "dtype": "int32"}, {"name": "bert/embeddings/strided_slice_2/stack_1", "shape": [2], "dtype": "int32"}, {"name": "bert/embeddings/strided_slice_2/stack_2", "shape": [2], "dtype": "int32"}, {"name": "bert/embeddings/Pad/paddings", "shape": [3, 2], "dtype": "int32"}, {"name": "bert/embeddings/word_embeddings", "shape": [30522, 128], "dtype": "float32"}, {"name": "bert/embeddings/embedding_lookup/axis", "shape": [], "dtype": "int32"}, {"name": "bert/embeddings/strided_slice/stack", "shape": [1], "dtype": "int32"}, {"name": "bert/embeddings/strided_slice/stack_1", "shape": [1], "dtype": "int32"}, {"name": "bert/embeddings/strided_slice/stack_2", "shape": [1], "dtype": "int32"}, {"name": "bert/embeddings/ExpandDims/dim", "shape": [1], "dtype": "int32"}, {"name": "bert/embeddings/strided_slice_1/stack", "shape": [1], "dtype": "int32"}, {"name": "bert/embeddings/strided_slice_1/stack_1", "shape": [1], "dtype": "int32"}, {"name": "bert/embeddings/strided_slice_1/stack_2", "shape": [1], "dtype": "int32"}, {"name": "bert/embeddings/Reshape/shape/2", "shape": [], "dtype": "int32"}, {"name": "bert/embeddings/strided_slice_3/stack", "shape": [2], "dtype": "int32"}, {"name": "bert/embeddings/strided_slice_3/stack_1", "shape": [2], "dtype": "int32"}, {"name": "bert/embeddings/strided_slice_3/stack_2", "shape": [2], "dtype": "int32"}, {"name": "bert/embeddings/Pad_1/paddings", "shape": [3, 2], "dtype": "int32"}, {"name": "bert/embeddings/concat/axis", "shape": [], "dtype": "int32"}, {"name": "bert/embeddings/strided_slice_7/stack", "shape": [1], "dtype": "int32"}, {"name": "bert/embeddings/strided_slice_7/stack_1", "shape": [1], "dtype": "int32"}, {"name": "bert/embeddings/strided_slice_7/stack_2", "shape": [1], "dtype": "int32"}, {"name": "bert/embeddings/embedding_transformation/Reshape_1/shape/2", "shape": [], "dtype": "int32"}, {"name": "bert/embeddings/strided_slice_9/stack", "shape": [1], "dtype": "int32"}, {"name": "bert/embeddings/strided_slice_9/stack_1", "shape": [1], "dtype": "int32"}, {"name": "bert/embeddings/strided_slice_9/stack_2", "shape": [1], "dtype": "int32"}, {"name": "bert/embeddings/FakeLayerNorm/gamma", "shape": [512], "dtype": "float32"}, {"name": "bert/embeddings/FakeLayerNorm/beta", "shape": [512], "dtype": "float32"}, {"name": "bert/encoder/layer_0/output/bottleneck/FakeLayerNorm/gamma", "shape": [512], "dtype": "float32"}, {"name": "bert/encoder/layer_0/output/bottleneck/FakeLayerNorm/beta", "shape": [512], "dtype": "float32"}, {"name": "bert/encoder/layer_1/output/bottleneck/FakeLayerNorm/gamma", "shape": [512], "dtype": "float32"}, {"name": "bert/encoder/layer_1/output/bottleneck/FakeLayerNorm/beta", "shape": [512], "dtype": "float32"}, {"name": "bert/encoder/layer_2/output/bottleneck/FakeLayerNorm/gamma", "shape": [512], "dtype": "float32"}, {"name": "bert/encoder/layer_2/output/bottleneck/FakeLayerNorm/beta", "shape": [512], "dtype": "float32"}, {"name": "bert/encoder/layer_3/output/bottleneck/FakeLayerNorm/gamma", "shape": [512], "dtype": "float32"}, {"name": "bert/encoder/layer_3/output/bottleneck/FakeLayerNorm/beta", "shape": [512], "dtype": "float32"}, {"name": "bert/encoder/layer_4/output/bottleneck/FakeLayerNorm/gamma", "shape": [512], "dtype": "float32"}, {"name": "bert/encoder/layer_4/output/bottleneck/FakeLayerNorm/beta", "shape": [512], "dtype": "float32"}, {"name": "bert/encoder/layer_5/output/bottleneck/FakeLayerNorm/gamma", "shape": [512], "dtype": "float32"}, {"name": "bert/encoder/layer_5/output/bottleneck/FakeLayerNorm/beta", "shape": [512], "dtype": "float32"}, {"name": "bert/encoder/layer_6/output/bottleneck/FakeLayerNorm/gamma", "shape": [512], "dtype": "float32"}, {"name": "bert/encoder/layer_6/output/bottleneck/FakeLayerNorm/beta", "shape": [512], "dtype": "float32"}, {"name": "bert/encoder/layer_7/output/bottleneck/FakeLayerNorm/gamma", "shape": [512], "dtype": "float32"}, {"name": "bert/encoder/layer_7/output/bottleneck/FakeLayerNorm/beta", "shape": [512], "dtype": "float32"}, {"name": "bert/encoder/layer_8/output/bottleneck/FakeLayerNorm/gamma", "shape": [512], "dtype": "float32"}, {"name": "bert/encoder/layer_8/output/bottleneck/FakeLayerNorm/beta", "shape": [512], "dtype": "float32"}, {"name": "bert/encoder/layer_9/output/bottleneck/FakeLayerNorm/gamma", "shape": [512], "dtype": "float32"}, {"name": "bert/encoder/layer_9/output/bottleneck/FakeLayerNorm/beta", "shape": [512], "dtype": "float32"}, {"name": "bert/encoder/layer_10/output/bottleneck/FakeLayerNorm/gamma", "shape": [512], "dtype": "float32"}, {"name": "bert/encoder/layer_10/output/bottleneck/FakeLayerNorm/beta", "shape": [512], "dtype": "float32"}, {"name": "bert/encoder/layer_11/output/bottleneck/FakeLayerNorm/gamma", "shape": [512], "dtype": "float32"}, {"name": "bert/encoder/layer_11/output/bottleneck/FakeLayerNorm/beta", "shape": [512], "dtype": "float32"}, {"name": "bert/encoder/layer_12/output/bottleneck/FakeLayerNorm/gamma", "shape": [512], "dtype": "float32"}, {"name": "bert/encoder/layer_12/output/bottleneck/FakeLayerNorm/beta", "shape": [512], "dtype": "float32"}, {"name": "bert/encoder/layer_13/output/bottleneck/FakeLayerNorm/gamma", "shape": [512], "dtype": "float32"}, {"name": "bert/encoder/layer_13/output/bottleneck/FakeLayerNorm/beta", "shape": [512], "dtype": "float32"}, {"name": "bert/encoder/layer_14/output/bottleneck/FakeLayerNorm/gamma", "shape": [512], "dtype": "float32"}, {"name": "bert/encoder/layer_14/output/bottleneck/FakeLayerNorm/beta", "shape": [512], "dtype": "float32"}, {"name": "bert/encoder/layer_15/output/bottleneck/FakeLayerNorm/gamma", "shape": [512], "dtype": "float32"}, {"name": "bert/encoder/layer_15/output/bottleneck/FakeLayerNorm/beta", "shape": [512], "dtype": "float32"}, {"name": "bert/encoder/layer_16/output/bottleneck/FakeLayerNorm/gamma", "shape": [512], "dtype": "float32"}, {"name": "bert/encoder/layer_16/output/bottleneck/FakeLayerNorm/beta", "shape": [512], "dtype": "float32"}, {"name": "bert/encoder/layer_17/output/bottleneck/FakeLayerNorm/gamma", "shape": [512], "dtype": "float32"}, {"name": "bert/encoder/layer_17/output/bottleneck/FakeLayerNorm/beta", "shape": [512], "dtype": "float32"}, {"name": "bert/encoder/layer_18/output/bottleneck/FakeLayerNorm/gamma", "shape": [512], "dtype": "float32"}, {"name": "bert/encoder/layer_18/output/bottleneck/FakeLayerNorm/beta", "shape": [512], "dtype": "float32"}, {"name": "bert/encoder/layer_19/output/bottleneck/FakeLayerNorm/gamma", "shape": [512], "dtype": "float32"}, {"name": "bert/encoder/layer_19/output/bottleneck/FakeLayerNorm/beta", "shape": [512], "dtype": "float32"}, {"name": "bert/encoder/layer_20/output/bottleneck/FakeLayerNorm/gamma", "shape": [512], "dtype": "float32"}, {"name": "bert/encoder/layer_20/output/bottleneck/FakeLayerNorm/beta", "shape": [512], "dtype": "float32"}, {"name": "bert/encoder/layer_21/output/bottleneck/FakeLayerNorm/gamma", "shape": [512], "dtype": "float32"}, {"name": "bert/encoder/layer_21/output/bottleneck/FakeLayerNorm/beta", "shape": [512], "dtype": "float32"}, {"name": "bert/encoder/layer_22/output/bottleneck/FakeLayerNorm/gamma", "shape": [512], "dtype": "float32"}, {"name": "bert/encoder/layer_22/output/bottleneck/FakeLayerNorm/beta", "shape": [512], "dtype": "float32"}, {"name": "bert/encoder/layer_23/output/bottleneck/FakeLayerNorm/gamma", "shape": [512], "dtype": "float32"}, {"name": "bert/encoder/layer_23/output/bottleneck/FakeLayerNorm/beta", "shape": [512], "dtype": "float32"}, {"name": "bert/pooler/strided_slice/stack", "shape": [3], "dtype": "int32"}, {"name": "bert/pooler/strided_slice/stack_1", "shape": [3], "dtype": "int32"}, {"name": "bert/pooler/strided_slice/stack_2", "shape": [3], "dtype": "int32"}, {"name": "bert/embeddings/Slice/begin", "shape": [2], "dtype": "int32"}, {"name": "bert/embeddings/Slice/size/1", "shape": [], "dtype": "int32"}, {"name": "bert/embeddings/Reshape_1/shape/0", "shape": [], "dtype": "int32"}, {"name": "bert/embeddings/Reshape_1/shape/2", "shape": [], "dtype": "int32"}]}]}